<?xml version="1.0" ?>
<net name="model" version="10">
	<layers>
		<layer id="0" name="attention_mask" type="Parameter" version="opset1">
			<data shape="1, 128" element_type="i32"/>
			<output>
				<port id="0" precision="I32" names="attention_mask">
					<dim>1</dim>
					<dim>128</dim>
				</port>
			</output>
		</layer>
		<layer id="1" name="input_ids" type="Parameter" version="opset1">
			<data shape="1, 128" element_type="i32"/>
			<output>
				<port id="0" precision="I32" names="input_ids">
					<dim>1</dim>
					<dim>128</dim>
				</port>
			</output>
		</layer>
		<layer id="2" name="bert.embeddings.word_embeddings.weight" type="Const" version="opset1">
			<data element_type="f16" shape="50265, 128" offset="0" size="12867840"/>
			<output>
				<port id="0" precision="FP16" names="bert.embeddings.word_embeddings.weight">
					<dim>50265</dim>
					<dim>128</dim>
				</port>
			</output>
		</layer>
		<layer id="3" name="Gather_17/axis" type="Const" version="opset1">
			<data element_type="i64" shape="" offset="12867840" size="8"/>
			<output>
				<port id="0" precision="I64"/>
			</output>
		</layer>
		<layer id="4" name="Gather_17535" type="Gather" version="opset7">
			<data batch_dims="0"/>
			<input>
				<port id="0" precision="FP16">
					<dim>50265</dim>
					<dim>128</dim>
				</port>
				<port id="1" precision="I32">
					<dim>1</dim>
					<dim>128</dim>
				</port>
				<port id="2" precision="I64"/>
			</input>
			<output>
				<port id="3" precision="FP16" names="63">
					<dim>1</dim>
					<dim>128</dim>
					<dim>128</dim>
				</port>
			</output>
		</layer>
		<layer id="5" name="bert.embeddings.token_type_embeddings.weight" type="Const" version="opset1">
			<data element_type="f16" shape="1, 128" offset="12867848" size="256"/>
			<output>
				<port id="0" precision="FP16" names="bert.embeddings.token_type_embeddings.weight">
					<dim>1</dim>
					<dim>128</dim>
				</port>
			</output>
		</layer>
		<layer id="6" name="ConstantOfShape_9/Broadcast/FillValue" type="Const" version="opset1">
			<data element_type="i64" shape="1" offset="12867840" size="8"/>
			<output>
				<port id="0" precision="I64">
					<dim>1</dim>
				</port>
			</output>
		</layer>
		<layer id="7" name="Shape_0" type="ShapeOf" version="opset3">
			<data output_type="i64"/>
			<input>
				<port id="0" precision="I32">
					<dim>1</dim>
					<dim>128</dim>
				</port>
			</input>
			<output>
				<port id="1" precision="I64" names="46">
					<dim>2</dim>
				</port>
			</output>
		</layer>
		<layer id="8" name="Constant_1" type="Const" version="opset1">
			<data element_type="i32" shape="" offset="12868104" size="4"/>
			<output>
				<port id="0" precision="I32" names="47"/>
			</output>
		</layer>
		<layer id="9" name="Gather_2/axis" type="Const" version="opset1">
			<data element_type="i64" shape="" offset="12867840" size="8"/>
			<output>
				<port id="0" precision="I64"/>
			</output>
		</layer>
		<layer id="10" name="Gather_2517" type="Gather" version="opset7">
			<data batch_dims="0"/>
			<input>
				<port id="0" precision="I64">
					<dim>2</dim>
				</port>
				<port id="1" precision="I32"/>
				<port id="2" precision="I64"/>
			</input>
			<output>
				<port id="3" precision="I64" names="48"/>
			</output>
		</layer>
		<layer id="11" name="Unsqueeze_6/Dims" type="Const" version="opset1">
			<data element_type="i64" shape="1" offset="12867840" size="8"/>
			<output>
				<port id="0" precision="I64">
					<dim>1</dim>
				</port>
			</output>
		</layer>
		<layer id="12" name="Unsqueeze_6/Unsqueeze" type="Unsqueeze" version="opset1">
			<input>
				<port id="0" precision="I64"/>
				<port id="1" precision="I64">
					<dim>1</dim>
				</port>
			</input>
			<output>
				<port id="2" precision="I64" names="52">
					<dim>1</dim>
				</port>
			</output>
		</layer>
		<layer id="13" name="Shape_3" type="ShapeOf" version="opset3">
			<data output_type="i64"/>
			<input>
				<port id="0" precision="I32">
					<dim>1</dim>
					<dim>128</dim>
				</port>
			</input>
			<output>
				<port id="1" precision="I64" names="49">
					<dim>2</dim>
				</port>
			</output>
		</layer>
		<layer id="14" name="Constant_4" type="Const" version="opset1">
			<data element_type="i32" shape="" offset="12868108" size="4"/>
			<output>
				<port id="0" precision="I32" names="50"/>
			</output>
		</layer>
		<layer id="15" name="Gather_5/axis" type="Const" version="opset1">
			<data element_type="i64" shape="" offset="12867840" size="8"/>
			<output>
				<port id="0" precision="I64"/>
			</output>
		</layer>
		<layer id="16" name="Gather_5561" type="Gather" version="opset7">
			<data batch_dims="0"/>
			<input>
				<port id="0" precision="I64">
					<dim>2</dim>
				</port>
				<port id="1" precision="I32"/>
				<port id="2" precision="I64"/>
			</input>
			<output>
				<port id="3" precision="I64" names="51"/>
			</output>
		</layer>
		<layer id="17" name="Unsqueeze_7/Dims" type="Const" version="opset1">
			<data element_type="i64" shape="1" offset="12867840" size="8"/>
			<output>
				<port id="0" precision="I64">
					<dim>1</dim>
				</port>
			</output>
		</layer>
		<layer id="18" name="Unsqueeze_7/Unsqueeze" type="Unsqueeze" version="opset1">
			<input>
				<port id="0" precision="I64"/>
				<port id="1" precision="I64">
					<dim>1</dim>
				</port>
			</input>
			<output>
				<port id="2" precision="I64" names="53">
					<dim>1</dim>
				</port>
			</output>
		</layer>
		<layer id="19" name="Concat_8" type="Concat" version="opset1">
			<data axis="0"/>
			<input>
				<port id="0" precision="I64">
					<dim>1</dim>
				</port>
				<port id="1" precision="I64">
					<dim>1</dim>
				</port>
			</input>
			<output>
				<port id="2" precision="I64" names="54">
					<dim>2</dim>
				</port>
			</output>
		</layer>
		<layer id="20" name="ConstantOfShape_9/Broadcast" type="Broadcast" version="opset3">
			<data mode="numpy"/>
			<input>
				<port id="0" precision="I64">
					<dim>1</dim>
				</port>
				<port id="1" precision="I64">
					<dim>2</dim>
				</port>
			</input>
			<output>
				<port id="2" precision="I64">
					<dim>1</dim>
					<dim>128</dim>
				</port>
			</output>
		</layer>
		<layer id="21" name="Gather_18567/Cast_1" type="Convert" version="opset1">
			<data destination_type="i32"/>
			<input>
				<port id="0" precision="I64">
					<dim>1</dim>
					<dim>128</dim>
				</port>
			</input>
			<output>
				<port id="1" precision="I32" names="55">
					<dim>1</dim>
					<dim>128</dim>
				</port>
			</output>
		</layer>
		<layer id="22" name="Gather_18/axis" type="Const" version="opset1">
			<data element_type="i64" shape="" offset="12867840" size="8"/>
			<output>
				<port id="0" precision="I64"/>
			</output>
		</layer>
		<layer id="23" name="Gather_18567" type="Gather" version="opset7">
			<data batch_dims="0"/>
			<input>
				<port id="0" precision="FP16">
					<dim>1</dim>
					<dim>128</dim>
				</port>
				<port id="1" precision="I32">
					<dim>1</dim>
					<dim>128</dim>
				</port>
				<port id="2" precision="I64"/>
			</input>
			<output>
				<port id="3" precision="FP16" names="64">
					<dim>1</dim>
					<dim>128</dim>
					<dim>128</dim>
				</port>
			</output>
		</layer>
		<layer id="24" name="Add_19" type="Add" version="opset1">
			<data auto_broadcast="numpy"/>
			<input>
				<port id="0" precision="FP16">
					<dim>1</dim>
					<dim>128</dim>
					<dim>128</dim>
				</port>
				<port id="1" precision="FP16">
					<dim>1</dim>
					<dim>128</dim>
					<dim>128</dim>
				</port>
			</input>
			<output>
				<port id="2" precision="FP16" names="65">
					<dim>1</dim>
					<dim>128</dim>
					<dim>128</dim>
				</port>
			</output>
		</layer>
		<layer id="25" name="482_input_port_1/value" type="Const" version="opset1">
			<data element_type="i64" shape="1" offset="12868112" size="8"/>
			<output>
				<port id="0" precision="I64">
					<dim>1</dim>
				</port>
			</output>
		</layer>
		<layer id="26" name="Div_28" type="MVN" version="opset6">
			<data eps="9.999999960041972e-13" normalize_variance="true" eps_mode="INSIDE_SQRT"/>
			<input>
				<port id="0" precision="FP16">
					<dim>1</dim>
					<dim>128</dim>
					<dim>128</dim>
				</port>
				<port id="1" precision="I64">
					<dim>1</dim>
				</port>
			</input>
			<output>
				<port id="2" precision="FP16" names="74">
					<dim>1</dim>
					<dim>128</dim>
					<dim>128</dim>
				</port>
			</output>
		</layer>
		<layer id="27" name="bert.embeddings.LayerNorm.weight" type="Const" version="opset1">
			<data element_type="f16" shape="1, 1, 128" offset="12868120" size="256"/>
			<output>
				<port id="0" precision="FP16" names="bert.embeddings.LayerNorm.weight">
					<dim>1</dim>
					<dim>1</dim>
					<dim>128</dim>
				</port>
			</output>
		</layer>
		<layer id="28" name="Mul_29" type="Multiply" version="opset1">
			<data auto_broadcast="numpy"/>
			<input>
				<port id="0" precision="FP16">
					<dim>1</dim>
					<dim>128</dim>
					<dim>128</dim>
				</port>
				<port id="1" precision="FP16">
					<dim>1</dim>
					<dim>1</dim>
					<dim>128</dim>
				</port>
			</input>
			<output>
				<port id="2" precision="FP16" names="75">
					<dim>1</dim>
					<dim>128</dim>
					<dim>128</dim>
				</port>
			</output>
		</layer>
		<layer id="29" name="bert.embeddings.LayerNorm.bias" type="Const" version="opset1">
			<data element_type="f16" shape="1, 1, 128" offset="12868376" size="256"/>
			<output>
				<port id="0" precision="FP16" names="bert.embeddings.LayerNorm.bias">
					<dim>1</dim>
					<dim>1</dim>
					<dim>128</dim>
				</port>
			</output>
		</layer>
		<layer id="30" name="Add_30" type="Add" version="opset1">
			<data auto_broadcast="numpy"/>
			<input>
				<port id="0" precision="FP16">
					<dim>1</dim>
					<dim>128</dim>
					<dim>128</dim>
				</port>
				<port id="1" precision="FP16">
					<dim>1</dim>
					<dim>1</dim>
					<dim>128</dim>
				</port>
			</input>
			<output>
				<port id="2" precision="FP16" names="76">
					<dim>1</dim>
					<dim>128</dim>
					<dim>128</dim>
				</port>
			</output>
		</layer>
		<layer id="31" name="386" type="Const" version="opset1">
			<data element_type="f16" shape="128, 128" offset="12868632" size="32768"/>
			<output>
				<port id="0" precision="FP16" names="386">
					<dim>128</dim>
					<dim>128</dim>
				</port>
			</output>
		</layer>
		<layer id="32" name="MatMul_31" type="MatMul" version="opset1">
			<data transpose_a="false" transpose_b="true"/>
			<input>
				<port id="0" precision="FP16">
					<dim>1</dim>
					<dim>128</dim>
					<dim>128</dim>
				</port>
				<port id="1" precision="FP16">
					<dim>128</dim>
					<dim>128</dim>
				</port>
			</input>
			<output>
				<port id="2" precision="FP16" names="78">
					<dim>1</dim>
					<dim>128</dim>
					<dim>128</dim>
				</port>
			</output>
		</layer>
		<layer id="33" name="bert.encoder.layer.0.attention.self.query.bias" type="Const" version="opset1">
			<data element_type="f16" shape="1, 1, 128" offset="12868376" size="256"/>
			<output>
				<port id="0" precision="FP16" names="bert.encoder.layer.0.attention.self.query.bias">
					<dim>1</dim>
					<dim>1</dim>
					<dim>128</dim>
				</port>
			</output>
		</layer>
		<layer id="34" name="Add_32" type="Add" version="opset1">
			<data auto_broadcast="numpy"/>
			<input>
				<port id="0" precision="FP16">
					<dim>1</dim>
					<dim>128</dim>
					<dim>128</dim>
				</port>
				<port id="1" precision="FP16">
					<dim>1</dim>
					<dim>1</dim>
					<dim>128</dim>
				</port>
			</input>
			<output>
				<port id="2" precision="FP16" names="79">
					<dim>1</dim>
					<dim>128</dim>
					<dim>128</dim>
				</port>
			</output>
		</layer>
		<layer id="35" name="Shape_59" type="ShapeOf" version="opset3">
			<data output_type="i64"/>
			<input>
				<port id="0" precision="FP16">
					<dim>1</dim>
					<dim>128</dim>
					<dim>128</dim>
				</port>
			</input>
			<output>
				<port id="1" precision="I64" names="116">
					<dim>3</dim>
				</port>
			</output>
		</layer>
		<layer id="36" name="Constant_60" type="Const" version="opset1">
			<data element_type="i32" shape="" offset="12868104" size="4"/>
			<output>
				<port id="0" precision="I32" names="117"/>
			</output>
		</layer>
		<layer id="37" name="Gather_61/axis" type="Const" version="opset1">
			<data element_type="i64" shape="" offset="12867840" size="8"/>
			<output>
				<port id="0" precision="I64"/>
			</output>
		</layer>
		<layer id="38" name="Gather_61553" type="Gather" version="opset7">
			<data batch_dims="0"/>
			<input>
				<port id="0" precision="I64">
					<dim>3</dim>
				</port>
				<port id="1" precision="I32"/>
				<port id="2" precision="I64"/>
			</input>
			<output>
				<port id="3" precision="I64" names="118"/>
			</output>
		</layer>
		<layer id="39" name="Unsqueeze_65/Dims" type="Const" version="opset1">
			<data element_type="i64" shape="1" offset="12867840" size="8"/>
			<output>
				<port id="0" precision="I64">
					<dim>1</dim>
				</port>
			</output>
		</layer>
		<layer id="40" name="Unsqueeze_65/Unsqueeze" type="Unsqueeze" version="opset1">
			<input>
				<port id="0" precision="I64"/>
				<port id="1" precision="I64">
					<dim>1</dim>
				</port>
			</input>
			<output>
				<port id="2" precision="I64" names="124">
					<dim>1</dim>
				</port>
			</output>
		</layer>
		<layer id="41" name="Shape_62" type="ShapeOf" version="opset3">
			<data output_type="i64"/>
			<input>
				<port id="0" precision="FP16">
					<dim>1</dim>
					<dim>128</dim>
					<dim>128</dim>
				</port>
			</input>
			<output>
				<port id="1" precision="I64" names="119">
					<dim>3</dim>
				</port>
			</output>
		</layer>
		<layer id="42" name="Constant_63" type="Const" version="opset1">
			<data element_type="i32" shape="" offset="12868108" size="4"/>
			<output>
				<port id="0" precision="I32" names="120"/>
			</output>
		</layer>
		<layer id="43" name="Gather_64/axis" type="Const" version="opset1">
			<data element_type="i64" shape="" offset="12867840" size="8"/>
			<output>
				<port id="0" precision="I64"/>
			</output>
		</layer>
		<layer id="44" name="Gather_64527" type="Gather" version="opset7">
			<data batch_dims="0"/>
			<input>
				<port id="0" precision="I64">
					<dim>3</dim>
				</port>
				<port id="1" precision="I32"/>
				<port id="2" precision="I64"/>
			</input>
			<output>
				<port id="3" precision="I64" names="121"/>
			</output>
		</layer>
		<layer id="45" name="Unsqueeze_66/Dims" type="Const" version="opset1">
			<data element_type="i64" shape="1" offset="12867840" size="8"/>
			<output>
				<port id="0" precision="I64">
					<dim>1</dim>
				</port>
			</output>
		</layer>
		<layer id="46" name="Unsqueeze_66/Unsqueeze" type="Unsqueeze" version="opset1">
			<input>
				<port id="0" precision="I64"/>
				<port id="1" precision="I64">
					<dim>1</dim>
				</port>
			</input>
			<output>
				<port id="2" precision="I64" names="125">
					<dim>1</dim>
				</port>
			</output>
		</layer>
		<layer id="47" name="393" type="Const" version="opset1">
			<data element_type="i64" shape="1" offset="12901400" size="8"/>
			<output>
				<port id="0" precision="I64" names="393">
					<dim>1</dim>
				</port>
			</output>
		</layer>
		<layer id="48" name="394" type="Const" version="opset1">
			<data element_type="i64" shape="1" offset="12901408" size="8"/>
			<output>
				<port id="0" precision="I64" names="394">
					<dim>1</dim>
				</port>
			</output>
		</layer>
		<layer id="49" name="Concat_67" type="Concat" version="opset1">
			<data axis="0"/>
			<input>
				<port id="0" precision="I64">
					<dim>1</dim>
				</port>
				<port id="1" precision="I64">
					<dim>1</dim>
				</port>
				<port id="2" precision="I64">
					<dim>1</dim>
				</port>
				<port id="3" precision="I64">
					<dim>1</dim>
				</port>
			</input>
			<output>
				<port id="4" precision="I64" names="128">
					<dim>4</dim>
				</port>
			</output>
		</layer>
		<layer id="50" name="Reshape_68" type="Reshape" version="opset1">
			<data special_zero="true"/>
			<input>
				<port id="0" precision="FP16">
					<dim>1</dim>
					<dim>128</dim>
					<dim>128</dim>
				</port>
				<port id="1" precision="I64">
					<dim>4</dim>
				</port>
			</input>
			<output>
				<port id="2" precision="FP16" names="129">
					<dim>1</dim>
					<dim>128</dim>
					<dim>2</dim>
					<dim>64</dim>
				</port>
			</output>
		</layer>
		<layer id="51" name="365" type="Const" version="opset1">
			<data element_type="i64" shape="4" offset="12901416" size="32"/>
			<output>
				<port id="0" precision="I64">
					<dim>4</dim>
				</port>
			</output>
		</layer>
		<layer id="52" name="Transpose_69" type="Transpose" version="opset1">
			<input>
				<port id="0" precision="FP16">
					<dim>1</dim>
					<dim>128</dim>
					<dim>2</dim>
					<dim>64</dim>
				</port>
				<port id="1" precision="I64">
					<dim>4</dim>
				</port>
			</input>
			<output>
				<port id="2" precision="FP16" names="130">
					<dim>1</dim>
					<dim>2</dim>
					<dim>128</dim>
					<dim>64</dim>
				</port>
			</output>
		</layer>
		<layer id="53" name="Constant_70" type="Const" version="opset1">
			<data element_type="i32" shape="" offset="12868104" size="4"/>
			<output>
				<port id="0" precision="I32" names="131"/>
			</output>
		</layer>
		<layer id="54" name="Gather_71/axis" type="Const" version="opset1">
			<data element_type="i64" shape="" offset="12901448" size="8"/>
			<output>
				<port id="0" precision="I64"/>
			</output>
		</layer>
		<layer id="55" name="Gather_71563" type="Gather" version="opset7">
			<data batch_dims="0"/>
			<input>
				<port id="0" precision="FP16">
					<dim>1</dim>
					<dim>2</dim>
					<dim>128</dim>
					<dim>64</dim>
				</port>
				<port id="1" precision="I32"/>
				<port id="2" precision="I64"/>
			</input>
			<output>
				<port id="3" precision="FP16" names="132">
					<dim>1</dim>
					<dim>128</dim>
					<dim>64</dim>
				</port>
			</output>
		</layer>
		<layer id="56" name="387" type="Const" version="opset1">
			<data element_type="f16" shape="128, 128" offset="12901456" size="32768"/>
			<output>
				<port id="0" precision="FP16" names="387">
					<dim>128</dim>
					<dim>128</dim>
				</port>
			</output>
		</layer>
		<layer id="57" name="MatMul_33" type="MatMul" version="opset1">
			<data transpose_a="false" transpose_b="true"/>
			<input>
				<port id="0" precision="FP16">
					<dim>1</dim>
					<dim>128</dim>
					<dim>128</dim>
				</port>
				<port id="1" precision="FP16">
					<dim>128</dim>
					<dim>128</dim>
				</port>
			</input>
			<output>
				<port id="2" precision="FP16" names="81">
					<dim>1</dim>
					<dim>128</dim>
					<dim>128</dim>
				</port>
			</output>
		</layer>
		<layer id="58" name="bert.encoder.layer.0.attention.self.key.bias" type="Const" version="opset1">
			<data element_type="f16" shape="1, 1, 128" offset="12868376" size="256"/>
			<output>
				<port id="0" precision="FP16" names="bert.encoder.layer.0.attention.self.key.bias">
					<dim>1</dim>
					<dim>1</dim>
					<dim>128</dim>
				</port>
			</output>
		</layer>
		<layer id="59" name="Add_34" type="Add" version="opset1">
			<data auto_broadcast="numpy"/>
			<input>
				<port id="0" precision="FP16">
					<dim>1</dim>
					<dim>128</dim>
					<dim>128</dim>
				</port>
				<port id="1" precision="FP16">
					<dim>1</dim>
					<dim>1</dim>
					<dim>128</dim>
				</port>
			</input>
			<output>
				<port id="2" precision="FP16" names="82">
					<dim>1</dim>
					<dim>128</dim>
					<dim>128</dim>
				</port>
			</output>
		</layer>
		<layer id="60" name="Shape_35" type="ShapeOf" version="opset3">
			<data output_type="i64"/>
			<input>
				<port id="0" precision="FP16">
					<dim>1</dim>
					<dim>128</dim>
					<dim>128</dim>
				</port>
			</input>
			<output>
				<port id="1" precision="I64" names="83">
					<dim>3</dim>
				</port>
			</output>
		</layer>
		<layer id="61" name="Constant_36" type="Const" version="opset1">
			<data element_type="i32" shape="" offset="12868104" size="4"/>
			<output>
				<port id="0" precision="I32" names="84"/>
			</output>
		</layer>
		<layer id="62" name="Gather_37/axis" type="Const" version="opset1">
			<data element_type="i64" shape="" offset="12867840" size="8"/>
			<output>
				<port id="0" precision="I64"/>
			</output>
		</layer>
		<layer id="63" name="Gather_37513" type="Gather" version="opset7">
			<data batch_dims="0"/>
			<input>
				<port id="0" precision="I64">
					<dim>3</dim>
				</port>
				<port id="1" precision="I32"/>
				<port id="2" precision="I64"/>
			</input>
			<output>
				<port id="3" precision="I64" names="85"/>
			</output>
		</layer>
		<layer id="64" name="Unsqueeze_41/Dims" type="Const" version="opset1">
			<data element_type="i64" shape="1" offset="12867840" size="8"/>
			<output>
				<port id="0" precision="I64">
					<dim>1</dim>
				</port>
			</output>
		</layer>
		<layer id="65" name="Unsqueeze_41/Unsqueeze" type="Unsqueeze" version="opset1">
			<input>
				<port id="0" precision="I64"/>
				<port id="1" precision="I64">
					<dim>1</dim>
				</port>
			</input>
			<output>
				<port id="2" precision="I64" names="91">
					<dim>1</dim>
				</port>
			</output>
		</layer>
		<layer id="66" name="Shape_38" type="ShapeOf" version="opset3">
			<data output_type="i64"/>
			<input>
				<port id="0" precision="FP16">
					<dim>1</dim>
					<dim>128</dim>
					<dim>128</dim>
				</port>
			</input>
			<output>
				<port id="1" precision="I64" names="86">
					<dim>3</dim>
				</port>
			</output>
		</layer>
		<layer id="67" name="Constant_39" type="Const" version="opset1">
			<data element_type="i32" shape="" offset="12868108" size="4"/>
			<output>
				<port id="0" precision="I32" names="87"/>
			</output>
		</layer>
		<layer id="68" name="Gather_40/axis" type="Const" version="opset1">
			<data element_type="i64" shape="" offset="12867840" size="8"/>
			<output>
				<port id="0" precision="I64"/>
			</output>
		</layer>
		<layer id="69" name="Gather_40559" type="Gather" version="opset7">
			<data batch_dims="0"/>
			<input>
				<port id="0" precision="I64">
					<dim>3</dim>
				</port>
				<port id="1" precision="I32"/>
				<port id="2" precision="I64"/>
			</input>
			<output>
				<port id="3" precision="I64" names="88"/>
			</output>
		</layer>
		<layer id="70" name="Unsqueeze_42/Dims" type="Const" version="opset1">
			<data element_type="i64" shape="1" offset="12867840" size="8"/>
			<output>
				<port id="0" precision="I64">
					<dim>1</dim>
				</port>
			</output>
		</layer>
		<layer id="71" name="Unsqueeze_42/Unsqueeze" type="Unsqueeze" version="opset1">
			<input>
				<port id="0" precision="I64"/>
				<port id="1" precision="I64">
					<dim>1</dim>
				</port>
			</input>
			<output>
				<port id="2" precision="I64" names="92">
					<dim>1</dim>
				</port>
			</output>
		</layer>
		<layer id="72" name="388" type="Const" version="opset1">
			<data element_type="i64" shape="1" offset="12901400" size="8"/>
			<output>
				<port id="0" precision="I64" names="388">
					<dim>1</dim>
				</port>
			</output>
		</layer>
		<layer id="73" name="389" type="Const" version="opset1">
			<data element_type="i64" shape="1" offset="12901408" size="8"/>
			<output>
				<port id="0" precision="I64" names="389">
					<dim>1</dim>
				</port>
			</output>
		</layer>
		<layer id="74" name="Concat_43" type="Concat" version="opset1">
			<data axis="0"/>
			<input>
				<port id="0" precision="I64">
					<dim>1</dim>
				</port>
				<port id="1" precision="I64">
					<dim>1</dim>
				</port>
				<port id="2" precision="I64">
					<dim>1</dim>
				</port>
				<port id="3" precision="I64">
					<dim>1</dim>
				</port>
			</input>
			<output>
				<port id="4" precision="I64" names="95">
					<dim>4</dim>
				</port>
			</output>
		</layer>
		<layer id="75" name="Reshape_44" type="Reshape" version="opset1">
			<data special_zero="true"/>
			<input>
				<port id="0" precision="FP16">
					<dim>1</dim>
					<dim>128</dim>
					<dim>128</dim>
				</port>
				<port id="1" precision="I64">
					<dim>4</dim>
				</port>
			</input>
			<output>
				<port id="2" precision="FP16" names="96">
					<dim>1</dim>
					<dim>128</dim>
					<dim>2</dim>
					<dim>64</dim>
				</port>
			</output>
		</layer>
		<layer id="76" name="370" type="Const" version="opset1">
			<data element_type="i64" shape="4" offset="12901416" size="32"/>
			<output>
				<port id="0" precision="I64">
					<dim>4</dim>
				</port>
			</output>
		</layer>
		<layer id="77" name="Transpose_45" type="Transpose" version="opset1">
			<input>
				<port id="0" precision="FP16">
					<dim>1</dim>
					<dim>128</dim>
					<dim>2</dim>
					<dim>64</dim>
				</port>
				<port id="1" precision="I64">
					<dim>4</dim>
				</port>
			</input>
			<output>
				<port id="2" precision="FP16" names="97">
					<dim>1</dim>
					<dim>2</dim>
					<dim>128</dim>
					<dim>64</dim>
				</port>
			</output>
		</layer>
		<layer id="78" name="Constant_72" type="Const" version="opset1">
			<data element_type="i32" shape="" offset="12868104" size="4"/>
			<output>
				<port id="0" precision="I32" names="133"/>
			</output>
		</layer>
		<layer id="79" name="Gather_73/axis" type="Const" version="opset1">
			<data element_type="i64" shape="" offset="12901448" size="8"/>
			<output>
				<port id="0" precision="I64"/>
			</output>
		</layer>
		<layer id="80" name="Gather_73555" type="Gather" version="opset7">
			<data batch_dims="0"/>
			<input>
				<port id="0" precision="FP16">
					<dim>1</dim>
					<dim>2</dim>
					<dim>128</dim>
					<dim>64</dim>
				</port>
				<port id="1" precision="I32"/>
				<port id="2" precision="I64"/>
			</input>
			<output>
				<port id="3" precision="FP16" names="134">
					<dim>1</dim>
					<dim>128</dim>
					<dim>64</dim>
				</port>
			</output>
		</layer>
		<layer id="81" name="371" type="Const" version="opset1">
			<data element_type="i64" shape="3" offset="12934224" size="24"/>
			<output>
				<port id="0" precision="I64">
					<dim>3</dim>
				</port>
			</output>
		</layer>
		<layer id="82" name="Transpose_74" type="Transpose" version="opset1">
			<input>
				<port id="0" precision="FP16">
					<dim>1</dim>
					<dim>128</dim>
					<dim>64</dim>
				</port>
				<port id="1" precision="I64">
					<dim>3</dim>
				</port>
			</input>
			<output>
				<port id="2" precision="FP16" names="135">
					<dim>1</dim>
					<dim>64</dim>
					<dim>128</dim>
				</port>
			</output>
		</layer>
		<layer id="83" name="MatMul_75" type="MatMul" version="opset1">
			<data transpose_a="false" transpose_b="false"/>
			<input>
				<port id="0" precision="FP16">
					<dim>1</dim>
					<dim>128</dim>
					<dim>64</dim>
				</port>
				<port id="1" precision="FP16">
					<dim>1</dim>
					<dim>64</dim>
					<dim>128</dim>
				</port>
			</input>
			<output>
				<port id="2" precision="FP16" names="136">
					<dim>1</dim>
					<dim>128</dim>
					<dim>128</dim>
				</port>
			</output>
		</layer>
		<layer id="84" name="Unsqueeze_82/Dims" type="Const" version="opset1">
			<data element_type="i64" shape="1" offset="12901448" size="8"/>
			<output>
				<port id="0" precision="I64">
					<dim>1</dim>
				</port>
			</output>
		</layer>
		<layer id="85" name="Unsqueeze_82/Unsqueeze" type="Unsqueeze" version="opset1">
			<input>
				<port id="0" precision="FP16">
					<dim>1</dim>
					<dim>128</dim>
					<dim>128</dim>
				</port>
				<port id="1" precision="I64">
					<dim>1</dim>
				</port>
			</input>
			<output>
				<port id="2" precision="FP16" names="143">
					<dim>1</dim>
					<dim>1</dim>
					<dim>128</dim>
					<dim>128</dim>
				</port>
			</output>
		</layer>
		<layer id="86" name="Constant_76" type="Const" version="opset1">
			<data element_type="i32" shape="" offset="12868108" size="4"/>
			<output>
				<port id="0" precision="I32" names="137"/>
			</output>
		</layer>
		<layer id="87" name="Gather_77/axis" type="Const" version="opset1">
			<data element_type="i64" shape="" offset="12901448" size="8"/>
			<output>
				<port id="0" precision="I64"/>
			</output>
		</layer>
		<layer id="88" name="Gather_77515" type="Gather" version="opset7">
			<data batch_dims="0"/>
			<input>
				<port id="0" precision="FP16">
					<dim>1</dim>
					<dim>2</dim>
					<dim>128</dim>
					<dim>64</dim>
				</port>
				<port id="1" precision="I32"/>
				<port id="2" precision="I64"/>
			</input>
			<output>
				<port id="3" precision="FP16" names="138">
					<dim>1</dim>
					<dim>128</dim>
					<dim>64</dim>
				</port>
			</output>
		</layer>
		<layer id="89" name="Constant_78" type="Const" version="opset1">
			<data element_type="i32" shape="" offset="12868108" size="4"/>
			<output>
				<port id="0" precision="I32" names="139"/>
			</output>
		</layer>
		<layer id="90" name="Gather_79/axis" type="Const" version="opset1">
			<data element_type="i64" shape="" offset="12901448" size="8"/>
			<output>
				<port id="0" precision="I64"/>
			</output>
		</layer>
		<layer id="91" name="Gather_79573" type="Gather" version="opset7">
			<data batch_dims="0"/>
			<input>
				<port id="0" precision="FP16">
					<dim>1</dim>
					<dim>2</dim>
					<dim>128</dim>
					<dim>64</dim>
				</port>
				<port id="1" precision="I32"/>
				<port id="2" precision="I64"/>
			</input>
			<output>
				<port id="3" precision="FP16" names="140">
					<dim>1</dim>
					<dim>128</dim>
					<dim>64</dim>
				</port>
			</output>
		</layer>
		<layer id="92" name="366" type="Const" version="opset1">
			<data element_type="i64" shape="3" offset="12934224" size="24"/>
			<output>
				<port id="0" precision="I64">
					<dim>3</dim>
				</port>
			</output>
		</layer>
		<layer id="93" name="Transpose_80" type="Transpose" version="opset1">
			<input>
				<port id="0" precision="FP16">
					<dim>1</dim>
					<dim>128</dim>
					<dim>64</dim>
				</port>
				<port id="1" precision="I64">
					<dim>3</dim>
				</port>
			</input>
			<output>
				<port id="2" precision="FP16" names="141">
					<dim>1</dim>
					<dim>64</dim>
					<dim>128</dim>
				</port>
			</output>
		</layer>
		<layer id="94" name="MatMul_81" type="MatMul" version="opset1">
			<data transpose_a="false" transpose_b="false"/>
			<input>
				<port id="0" precision="FP16">
					<dim>1</dim>
					<dim>128</dim>
					<dim>64</dim>
				</port>
				<port id="1" precision="FP16">
					<dim>1</dim>
					<dim>64</dim>
					<dim>128</dim>
				</port>
			</input>
			<output>
				<port id="2" precision="FP16" names="142">
					<dim>1</dim>
					<dim>128</dim>
					<dim>128</dim>
				</port>
			</output>
		</layer>
		<layer id="95" name="Unsqueeze_83/Dims" type="Const" version="opset1">
			<data element_type="i64" shape="1" offset="12901448" size="8"/>
			<output>
				<port id="0" precision="I64">
					<dim>1</dim>
				</port>
			</output>
		</layer>
		<layer id="96" name="Unsqueeze_83/Unsqueeze" type="Unsqueeze" version="opset1">
			<input>
				<port id="0" precision="FP16">
					<dim>1</dim>
					<dim>128</dim>
					<dim>128</dim>
				</port>
				<port id="1" precision="I64">
					<dim>1</dim>
				</port>
			</input>
			<output>
				<port id="2" precision="FP16" names="144">
					<dim>1</dim>
					<dim>1</dim>
					<dim>128</dim>
					<dim>128</dim>
				</port>
			</output>
		</layer>
		<layer id="97" name="Concat_84" type="Concat" version="opset1">
			<data axis="1"/>
			<input>
				<port id="0" precision="FP16">
					<dim>1</dim>
					<dim>1</dim>
					<dim>128</dim>
					<dim>128</dim>
				</port>
				<port id="1" precision="FP16">
					<dim>1</dim>
					<dim>1</dim>
					<dim>128</dim>
					<dim>128</dim>
				</port>
			</input>
			<output>
				<port id="2" precision="FP16" names="145">
					<dim>1</dim>
					<dim>2</dim>
					<dim>128</dim>
					<dim>128</dim>
				</port>
			</output>
		</layer>
		<layer id="98" name="bert.encoder.layer.0.attention.self.distance_embedding.weight" type="Const" version="opset1">
			<data element_type="f16" shape="1027, 64" offset="12934248" size="131456"/>
			<output>
				<port id="0" precision="FP16" names="bert.encoder.layer.0.attention.self.distance_embedding.weight">
					<dim>1027</dim>
					<dim>64</dim>
				</port>
			</output>
		</layer>
		<layer id="99" name="Constant_89" type="Const" version="opset1">
			<data element_type="i64" shape="" offset="12867840" size="8"/>
			<output>
				<port id="0" precision="I64" names="150"/>
			</output>
		</layer>
		<layer id="100" name="Shape_85" type="ShapeOf" version="opset3">
			<data output_type="i64"/>
			<input>
				<port id="0" precision="FP16">
					<dim>1</dim>
					<dim>128</dim>
					<dim>128</dim>
				</port>
			</input>
			<output>
				<port id="1" precision="I64" names="146">
					<dim>3</dim>
				</port>
			</output>
		</layer>
		<layer id="101" name="Constant_86" type="Const" version="opset1">
			<data element_type="i32" shape="" offset="12868108" size="4"/>
			<output>
				<port id="0" precision="I32" names="147"/>
			</output>
		</layer>
		<layer id="102" name="Gather_87/axis" type="Const" version="opset1">
			<data element_type="i64" shape="" offset="12867840" size="8"/>
			<output>
				<port id="0" precision="I64"/>
			</output>
		</layer>
		<layer id="103" name="Gather_87543" type="Gather" version="opset7">
			<data batch_dims="0"/>
			<input>
				<port id="0" precision="I64">
					<dim>3</dim>
				</port>
				<port id="1" precision="I32"/>
				<port id="2" precision="I64"/>
			</input>
			<output>
				<port id="3" precision="I64" names="148,149,155"/>
			</output>
		</layer>
		<layer id="104" name="Constant_90" type="Const" version="opset1">
			<data element_type="i64" shape="" offset="12901448" size="8"/>
			<output>
				<port id="0" precision="I64" names="151"/>
			</output>
		</layer>
		<layer id="105" name="Range_91" type="Range" version="opset4">
			<data output_type="i64"/>
			<input>
				<port id="0" precision="I64"/>
				<port id="1" precision="I64"/>
				<port id="2" precision="I64"/>
			</input>
			<output>
				<port id="3" precision="I64" names="152">
					<dim>128</dim>
				</port>
			</output>
		</layer>
		<layer id="106" name="Constant_92" type="Const" version="opset1">
			<data element_type="i64" shape="2" offset="13065704" size="16"/>
			<output>
				<port id="0" precision="I64" names="153">
					<dim>2</dim>
				</port>
			</output>
		</layer>
		<layer id="107" name="Reshape_93" type="Reshape" version="opset1">
			<data special_zero="true"/>
			<input>
				<port id="0" precision="I64">
					<dim>128</dim>
				</port>
				<port id="1" precision="I64">
					<dim>2</dim>
				</port>
			</input>
			<output>
				<port id="2" precision="I64" names="154">
					<dim>128</dim>
					<dim>1</dim>
				</port>
			</output>
		</layer>
		<layer id="108" name="Constant_95" type="Const" version="opset1">
			<data element_type="i64" shape="" offset="12867840" size="8"/>
			<output>
				<port id="0" precision="I64" names="156"/>
			</output>
		</layer>
		<layer id="109" name="Constant_96" type="Const" version="opset1">
			<data element_type="i64" shape="" offset="12901448" size="8"/>
			<output>
				<port id="0" precision="I64" names="157"/>
			</output>
		</layer>
		<layer id="110" name="Range_97" type="Range" version="opset4">
			<data output_type="i64"/>
			<input>
				<port id="0" precision="I64"/>
				<port id="1" precision="I64"/>
				<port id="2" precision="I64"/>
			</input>
			<output>
				<port id="3" precision="I64" names="158">
					<dim>128</dim>
				</port>
			</output>
		</layer>
		<layer id="111" name="Constant_98" type="Const" version="opset1">
			<data element_type="i64" shape="2" offset="13065720" size="16"/>
			<output>
				<port id="0" precision="I64" names="159">
					<dim>2</dim>
				</port>
			</output>
		</layer>
		<layer id="112" name="Reshape_99" type="Reshape" version="opset1">
			<data special_zero="true"/>
			<input>
				<port id="0" precision="I64">
					<dim>128</dim>
				</port>
				<port id="1" precision="I64">
					<dim>2</dim>
				</port>
			</input>
			<output>
				<port id="2" precision="I64" names="160">
					<dim>1</dim>
					<dim>128</dim>
				</port>
			</output>
		</layer>
		<layer id="113" name="Sub_100" type="Subtract" version="opset1">
			<data auto_broadcast="numpy"/>
			<input>
				<port id="0" precision="I64">
					<dim>128</dim>
					<dim>1</dim>
				</port>
				<port id="1" precision="I64">
					<dim>1</dim>
					<dim>128</dim>
				</port>
			</input>
			<output>
				<port id="2" precision="I64" names="161">
					<dim>128</dim>
					<dim>128</dim>
				</port>
			</output>
		</layer>
		<layer id="114" name="Constant_101" type="Const" version="opset1">
			<data element_type="i64" shape="1, 1" offset="13065736" size="8"/>
			<output>
				<port id="0" precision="I64" names="162">
					<dim>1</dim>
					<dim>1</dim>
				</port>
			</output>
		</layer>
		<layer id="115" name="Add_102" type="Add" version="opset1">
			<data auto_broadcast="numpy"/>
			<input>
				<port id="0" precision="I64">
					<dim>128</dim>
					<dim>128</dim>
				</port>
				<port id="1" precision="I64">
					<dim>1</dim>
					<dim>1</dim>
				</port>
			</input>
			<output>
				<port id="2" precision="I64" names="163">
					<dim>128</dim>
					<dim>128</dim>
				</port>
			</output>
		</layer>
		<layer id="116" name="Constant_103" type="Const" version="opset1">
			<data element_type="i64" shape="1, 1" offset="12901448" size="8"/>
			<output>
				<port id="0" precision="I64" names="164">
					<dim>1</dim>
					<dim>1</dim>
				</port>
			</output>
		</layer>
		<layer id="117" name="Sub_104" type="Subtract" version="opset1">
			<data auto_broadcast="numpy"/>
			<input>
				<port id="0" precision="I64">
					<dim>128</dim>
					<dim>128</dim>
				</port>
				<port id="1" precision="I64">
					<dim>1</dim>
					<dim>1</dim>
				</port>
			</input>
			<output>
				<port id="2" precision="I64">
					<dim>128</dim>
					<dim>128</dim>
				</port>
			</output>
		</layer>
		<layer id="118" name="Gather_105569/Cast_1" type="Convert" version="opset1">
			<data destination_type="i32"/>
			<input>
				<port id="0" precision="I64">
					<dim>128</dim>
					<dim>128</dim>
				</port>
			</input>
			<output>
				<port id="1" precision="I32" names="165">
					<dim>128</dim>
					<dim>128</dim>
				</port>
			</output>
		</layer>
		<layer id="119" name="Gather_105/axis" type="Const" version="opset1">
			<data element_type="i64" shape="" offset="12867840" size="8"/>
			<output>
				<port id="0" precision="I64"/>
			</output>
		</layer>
		<layer id="120" name="Gather_105569" type="Gather" version="opset7">
			<data batch_dims="0"/>
			<input>
				<port id="0" precision="FP16">
					<dim>1027</dim>
					<dim>64</dim>
				</port>
				<port id="1" precision="I32">
					<dim>128</dim>
					<dim>128</dim>
				</port>
				<port id="2" precision="I64"/>
			</input>
			<output>
				<port id="3" precision="FP16" names="166,167">
					<dim>128</dim>
					<dim>128</dim>
					<dim>64</dim>
				</port>
			</output>
		</layer>
		<layer id="121" name="Einsum_107" type="Einsum" version="opset7">
			<data equation="bhld,lrd-&gt;bhlr"/>
			<input>
				<port id="0" precision="FP16">
					<dim>1</dim>
					<dim>2</dim>
					<dim>128</dim>
					<dim>64</dim>
				</port>
				<port id="1" precision="FP16">
					<dim>128</dim>
					<dim>128</dim>
					<dim>64</dim>
				</port>
			</input>
			<output>
				<port id="2" precision="FP16" names="168">
					<dim>1</dim>
					<dim>2</dim>
					<dim>128</dim>
					<dim>128</dim>
				</port>
			</output>
		</layer>
		<layer id="122" name="Add_108" type="Add" version="opset1">
			<data auto_broadcast="numpy"/>
			<input>
				<port id="0" precision="FP16">
					<dim>1</dim>
					<dim>2</dim>
					<dim>128</dim>
					<dim>128</dim>
				</port>
				<port id="1" precision="FP16">
					<dim>1</dim>
					<dim>2</dim>
					<dim>128</dim>
					<dim>128</dim>
				</port>
			</input>
			<output>
				<port id="2" precision="FP16" names="169">
					<dim>1</dim>
					<dim>2</dim>
					<dim>128</dim>
					<dim>128</dim>
				</port>
			</output>
		</layer>
		<layer id="123" name="Constant_109" type="Const" version="opset1">
			<data element_type="f16" shape="1, 1, 1, 1" offset="13065744" size="2"/>
			<output>
				<port id="0" precision="FP16" names="170">
					<dim>1</dim>
					<dim>1</dim>
					<dim>1</dim>
					<dim>1</dim>
				</port>
			</output>
		</layer>
		<layer id="124" name="Div_110" type="Multiply" version="opset1">
			<data auto_broadcast="numpy"/>
			<input>
				<port id="0" precision="FP16">
					<dim>1</dim>
					<dim>2</dim>
					<dim>128</dim>
					<dim>128</dim>
				</port>
				<port id="1" precision="FP16">
					<dim>1</dim>
					<dim>1</dim>
					<dim>1</dim>
					<dim>1</dim>
				</port>
			</input>
			<output>
				<port id="2" precision="FP16" names="171">
					<dim>1</dim>
					<dim>2</dim>
					<dim>128</dim>
					<dim>128</dim>
				</port>
			</output>
		</layer>
		<layer id="125" name="Unsqueeze_10/Dims" type="Const" version="opset1">
			<data element_type="i64" shape="1" offset="12901448" size="8"/>
			<output>
				<port id="0" precision="I64">
					<dim>1</dim>
				</port>
			</output>
		</layer>
		<layer id="126" name="Unsqueeze_10/Unsqueeze" type="Unsqueeze" version="opset1">
			<input>
				<port id="0" precision="I32">
					<dim>1</dim>
					<dim>128</dim>
				</port>
				<port id="1" precision="I64">
					<dim>1</dim>
				</port>
			</input>
			<output>
				<port id="2" precision="I32" names="56">
					<dim>1</dim>
					<dim>1</dim>
					<dim>128</dim>
				</port>
			</output>
		</layer>
		<layer id="127" name="Unsqueeze_11/Dims" type="Const" version="opset1">
			<data element_type="i64" shape="1" offset="12901400" size="8"/>
			<output>
				<port id="0" precision="I64">
					<dim>1</dim>
				</port>
			</output>
		</layer>
		<layer id="128" name="Unsqueeze_11/Unsqueeze" type="Unsqueeze" version="opset1">
			<input>
				<port id="0" precision="I32">
					<dim>1</dim>
					<dim>1</dim>
					<dim>128</dim>
				</port>
				<port id="1" precision="I64">
					<dim>1</dim>
				</port>
			</input>
			<output>
				<port id="2" precision="I32" names="57">
					<dim>1</dim>
					<dim>1</dim>
					<dim>1</dim>
					<dim>128</dim>
				</port>
			</output>
		</layer>
		<layer id="129" name="Cast_12" type="Convert" version="opset1">
			<data destination_type="f16"/>
			<input>
				<port id="0" precision="I32">
					<dim>1</dim>
					<dim>1</dim>
					<dim>1</dim>
					<dim>128</dim>
				</port>
			</input>
			<output>
				<port id="1" precision="FP16">
					<dim>1</dim>
					<dim>1</dim>
					<dim>1</dim>
					<dim>128</dim>
				</port>
			</output>
		</layer>
		<layer id="130" name="data_mul_5702" type="Const" version="opset1">
			<data element_type="f16" shape="1, 1, 1, 1" offset="13065746" size="2"/>
			<output>
				<port id="0" precision="FP16">
					<dim>1</dim>
					<dim>1</dim>
					<dim>1</dim>
					<dim>1</dim>
				</port>
			</output>
		</layer>
		<layer id="131" name="Sub_14/neg_/Fused_Mul_" type="Multiply" version="opset1">
			<data auto_broadcast="numpy"/>
			<input>
				<port id="0" precision="FP16">
					<dim>1</dim>
					<dim>1</dim>
					<dim>1</dim>
					<dim>128</dim>
				</port>
				<port id="1" precision="FP16">
					<dim>1</dim>
					<dim>1</dim>
					<dim>1</dim>
					<dim>1</dim>
				</port>
			</input>
			<output>
				<port id="2" precision="FP16">
					<dim>1</dim>
					<dim>1</dim>
					<dim>1</dim>
					<dim>128</dim>
				</port>
			</output>
		</layer>
		<layer id="132" name="data_add_5704" type="Const" version="opset1">
			<data element_type="f16" shape="1, 1, 1, 1" offset="13065748" size="2"/>
			<output>
				<port id="0" precision="FP16">
					<dim>1</dim>
					<dim>1</dim>
					<dim>1</dim>
					<dim>1</dim>
				</port>
			</output>
		</layer>
		<layer id="133" name="Sub_14/Fused_Add_" type="Add" version="opset1">
			<data auto_broadcast="numpy"/>
			<input>
				<port id="0" precision="FP16">
					<dim>1</dim>
					<dim>1</dim>
					<dim>1</dim>
					<dim>128</dim>
				</port>
				<port id="1" precision="FP16">
					<dim>1</dim>
					<dim>1</dim>
					<dim>1</dim>
					<dim>1</dim>
				</port>
			</input>
			<output>
				<port id="2" precision="FP16" names="62">
					<dim>1</dim>
					<dim>1</dim>
					<dim>1</dim>
					<dim>128</dim>
				</port>
			</output>
		</layer>
		<layer id="134" name="Add_111" type="Add" version="opset1">
			<data auto_broadcast="numpy"/>
			<input>
				<port id="0" precision="FP16">
					<dim>1</dim>
					<dim>2</dim>
					<dim>128</dim>
					<dim>128</dim>
				</port>
				<port id="1" precision="FP16">
					<dim>1</dim>
					<dim>1</dim>
					<dim>1</dim>
					<dim>128</dim>
				</port>
			</input>
			<output>
				<port id="2" precision="FP16" names="172">
					<dim>1</dim>
					<dim>2</dim>
					<dim>128</dim>
					<dim>128</dim>
				</port>
			</output>
		</layer>
		<layer id="135" name="Softmax_112/FlattenONNX_/input_shape" type="ShapeOf" version="opset3">
			<data output_type="i64"/>
			<input>
				<port id="0" precision="FP16">
					<dim>1</dim>
					<dim>2</dim>
					<dim>128</dim>
					<dim>128</dim>
				</port>
			</input>
			<output>
				<port id="1" precision="I64">
					<dim>4</dim>
				</port>
			</output>
		</layer>
		<layer id="136" name="Softmax_112/FlattenONNX_/input_shape/Indices" type="Const" version="opset1">
			<data element_type="i32" shape="3" offset="13065750" size="12"/>
			<output>
				<port id="0" precision="I32">
					<dim>3</dim>
				</port>
			</output>
		</layer>
		<layer id="137" name="Softmax_112/FlattenONNX_/input_shape/Axis" type="Const" version="opset1">
			<data element_type="i64" shape="" offset="12867840" size="8"/>
			<output>
				<port id="0" precision="I64"/>
			</output>
		</layer>
		<layer id="138" name="Softmax_112/FlattenONNX_/input_shape/Gather" type="Gather" version="opset7">
			<data batch_dims="0"/>
			<input>
				<port id="0" precision="I64">
					<dim>4</dim>
				</port>
				<port id="1" precision="I32">
					<dim>3</dim>
				</port>
				<port id="2" precision="I64"/>
			</input>
			<output>
				<port id="3" precision="I64">
					<dim>3</dim>
				</port>
			</output>
		</layer>
		<layer id="139" name="Softmax_112/FlattenONNX_/first_dims/value" type="Const" version="opset1">
			<data element_type="i64" shape="1" offset="12867840" size="8"/>
			<output>
				<port id="0" precision="I64">
					<dim>1</dim>
				</port>
			</output>
		</layer>
		<layer id="140" name="Softmax_112/FlattenONNX_/first_dims" type="ReduceProd" version="opset1">
			<data keep_dims="true"/>
			<input>
				<port id="0" precision="I64">
					<dim>3</dim>
				</port>
				<port id="1" precision="I64">
					<dim>1</dim>
				</port>
			</input>
			<output>
				<port id="2" precision="I64">
					<dim>1</dim>
				</port>
			</output>
		</layer>
		<layer id="141" name="Softmax_112/FlattenONNX_/second_dims" type="Const" version="opset1">
			<data element_type="i64" shape="1" offset="12868112" size="8"/>
			<output>
				<port id="0" precision="I64">
					<dim>1</dim>
				</port>
			</output>
		</layer>
		<layer id="142" name="Softmax_112/FlattenONNX_/first_dims/shapes_concat" type="Concat" version="opset1">
			<data axis="0"/>
			<input>
				<port id="0" precision="I64">
					<dim>1</dim>
				</port>
				<port id="1" precision="I64">
					<dim>1</dim>
				</port>
			</input>
			<output>
				<port id="2" precision="I64">
					<dim>2</dim>
				</port>
			</output>
		</layer>
		<layer id="143" name="Softmax_112/FlattenONNX_/Reshape" type="Reshape" version="opset1">
			<data special_zero="true"/>
			<input>
				<port id="0" precision="FP16">
					<dim>1</dim>
					<dim>2</dim>
					<dim>128</dim>
					<dim>128</dim>
				</port>
				<port id="1" precision="I64">
					<dim>2</dim>
				</port>
			</input>
			<output>
				<port id="2" precision="FP16">
					<dim>256</dim>
					<dim>128</dim>
				</port>
			</output>
		</layer>
		<layer id="144" name="Softmax_112/Softmax_" type="SoftMax" version="opset1">
			<data axis="1"/>
			<input>
				<port id="0" precision="FP16">
					<dim>256</dim>
					<dim>128</dim>
				</port>
			</input>
			<output>
				<port id="1" precision="FP16">
					<dim>256</dim>
					<dim>128</dim>
				</port>
			</output>
		</layer>
		<layer id="145" name="Softmax_112/ShapeOf_" type="ShapeOf" version="opset3">
			<data output_type="i64"/>
			<input>
				<port id="0" precision="FP16">
					<dim>1</dim>
					<dim>2</dim>
					<dim>128</dim>
					<dim>128</dim>
				</port>
			</input>
			<output>
				<port id="1" precision="I64">
					<dim>4</dim>
				</port>
			</output>
		</layer>
		<layer id="146" name="Softmax_112" type="Reshape" version="opset1">
			<data special_zero="true"/>
			<input>
				<port id="0" precision="FP16">
					<dim>256</dim>
					<dim>128</dim>
				</port>
				<port id="1" precision="I64">
					<dim>4</dim>
				</port>
			</input>
			<output>
				<port id="2" precision="FP16" names="173">
					<dim>1</dim>
					<dim>2</dim>
					<dim>128</dim>
					<dim>128</dim>
				</port>
			</output>
		</layer>
		<layer id="147" name="390" type="Const" version="opset1">
			<data element_type="f16" shape="128, 128" offset="13065762" size="32768"/>
			<output>
				<port id="0" precision="FP16" names="390">
					<dim>128</dim>
					<dim>128</dim>
				</port>
			</output>
		</layer>
		<layer id="148" name="MatMul_46" type="MatMul" version="opset1">
			<data transpose_a="false" transpose_b="true"/>
			<input>
				<port id="0" precision="FP16">
					<dim>1</dim>
					<dim>128</dim>
					<dim>128</dim>
				</port>
				<port id="1" precision="FP16">
					<dim>128</dim>
					<dim>128</dim>
				</port>
			</input>
			<output>
				<port id="2" precision="FP16" names="99">
					<dim>1</dim>
					<dim>128</dim>
					<dim>128</dim>
				</port>
			</output>
		</layer>
		<layer id="149" name="bert.encoder.layer.0.attention.self.value.bias" type="Const" version="opset1">
			<data element_type="f16" shape="1, 1, 128" offset="12868376" size="256"/>
			<output>
				<port id="0" precision="FP16" names="bert.encoder.layer.0.attention.self.value.bias">
					<dim>1</dim>
					<dim>1</dim>
					<dim>128</dim>
				</port>
			</output>
		</layer>
		<layer id="150" name="Add_47" type="Add" version="opset1">
			<data auto_broadcast="numpy"/>
			<input>
				<port id="0" precision="FP16">
					<dim>1</dim>
					<dim>128</dim>
					<dim>128</dim>
				</port>
				<port id="1" precision="FP16">
					<dim>1</dim>
					<dim>1</dim>
					<dim>128</dim>
				</port>
			</input>
			<output>
				<port id="2" precision="FP16" names="100">
					<dim>1</dim>
					<dim>128</dim>
					<dim>128</dim>
				</port>
			</output>
		</layer>
		<layer id="151" name="Shape_48" type="ShapeOf" version="opset3">
			<data output_type="i64"/>
			<input>
				<port id="0" precision="FP16">
					<dim>1</dim>
					<dim>128</dim>
					<dim>128</dim>
				</port>
			</input>
			<output>
				<port id="1" precision="I64" names="101">
					<dim>3</dim>
				</port>
			</output>
		</layer>
		<layer id="152" name="Constant_49" type="Const" version="opset1">
			<data element_type="i32" shape="" offset="12868104" size="4"/>
			<output>
				<port id="0" precision="I32" names="102"/>
			</output>
		</layer>
		<layer id="153" name="Gather_50/axis" type="Const" version="opset1">
			<data element_type="i64" shape="" offset="12867840" size="8"/>
			<output>
				<port id="0" precision="I64"/>
			</output>
		</layer>
		<layer id="154" name="Gather_50541" type="Gather" version="opset7">
			<data batch_dims="0"/>
			<input>
				<port id="0" precision="I64">
					<dim>3</dim>
				</port>
				<port id="1" precision="I32"/>
				<port id="2" precision="I64"/>
			</input>
			<output>
				<port id="3" precision="I64" names="103"/>
			</output>
		</layer>
		<layer id="155" name="Unsqueeze_54/Dims" type="Const" version="opset1">
			<data element_type="i64" shape="1" offset="12867840" size="8"/>
			<output>
				<port id="0" precision="I64">
					<dim>1</dim>
				</port>
			</output>
		</layer>
		<layer id="156" name="Unsqueeze_54/Unsqueeze" type="Unsqueeze" version="opset1">
			<input>
				<port id="0" precision="I64"/>
				<port id="1" precision="I64">
					<dim>1</dim>
				</port>
			</input>
			<output>
				<port id="2" precision="I64" names="109">
					<dim>1</dim>
				</port>
			</output>
		</layer>
		<layer id="157" name="Shape_51" type="ShapeOf" version="opset3">
			<data output_type="i64"/>
			<input>
				<port id="0" precision="FP16">
					<dim>1</dim>
					<dim>128</dim>
					<dim>128</dim>
				</port>
			</input>
			<output>
				<port id="1" precision="I64" names="104">
					<dim>3</dim>
				</port>
			</output>
		</layer>
		<layer id="158" name="Constant_52" type="Const" version="opset1">
			<data element_type="i32" shape="" offset="12868108" size="4"/>
			<output>
				<port id="0" precision="I32" names="105"/>
			</output>
		</layer>
		<layer id="159" name="Gather_53/axis" type="Const" version="opset1">
			<data element_type="i64" shape="" offset="12867840" size="8"/>
			<output>
				<port id="0" precision="I64"/>
			</output>
		</layer>
		<layer id="160" name="Gather_53525" type="Gather" version="opset7">
			<data batch_dims="0"/>
			<input>
				<port id="0" precision="I64">
					<dim>3</dim>
				</port>
				<port id="1" precision="I32"/>
				<port id="2" precision="I64"/>
			</input>
			<output>
				<port id="3" precision="I64" names="106"/>
			</output>
		</layer>
		<layer id="161" name="Unsqueeze_55/Dims" type="Const" version="opset1">
			<data element_type="i64" shape="1" offset="12867840" size="8"/>
			<output>
				<port id="0" precision="I64">
					<dim>1</dim>
				</port>
			</output>
		</layer>
		<layer id="162" name="Unsqueeze_55/Unsqueeze" type="Unsqueeze" version="opset1">
			<input>
				<port id="0" precision="I64"/>
				<port id="1" precision="I64">
					<dim>1</dim>
				</port>
			</input>
			<output>
				<port id="2" precision="I64" names="110">
					<dim>1</dim>
				</port>
			</output>
		</layer>
		<layer id="163" name="391" type="Const" version="opset1">
			<data element_type="i64" shape="1" offset="12901400" size="8"/>
			<output>
				<port id="0" precision="I64" names="391">
					<dim>1</dim>
				</port>
			</output>
		</layer>
		<layer id="164" name="392" type="Const" version="opset1">
			<data element_type="i64" shape="1" offset="12901408" size="8"/>
			<output>
				<port id="0" precision="I64" names="392">
					<dim>1</dim>
				</port>
			</output>
		</layer>
		<layer id="165" name="Concat_56" type="Concat" version="opset1">
			<data axis="0"/>
			<input>
				<port id="0" precision="I64">
					<dim>1</dim>
				</port>
				<port id="1" precision="I64">
					<dim>1</dim>
				</port>
				<port id="2" precision="I64">
					<dim>1</dim>
				</port>
				<port id="3" precision="I64">
					<dim>1</dim>
				</port>
			</input>
			<output>
				<port id="4" precision="I64" names="113">
					<dim>4</dim>
				</port>
			</output>
		</layer>
		<layer id="166" name="Reshape_57" type="Reshape" version="opset1">
			<data special_zero="true"/>
			<input>
				<port id="0" precision="FP16">
					<dim>1</dim>
					<dim>128</dim>
					<dim>128</dim>
				</port>
				<port id="1" precision="I64">
					<dim>4</dim>
				</port>
			</input>
			<output>
				<port id="2" precision="FP16" names="114">
					<dim>1</dim>
					<dim>128</dim>
					<dim>2</dim>
					<dim>64</dim>
				</port>
			</output>
		</layer>
		<layer id="167" name="369" type="Const" version="opset1">
			<data element_type="i64" shape="4" offset="12901416" size="32"/>
			<output>
				<port id="0" precision="I64">
					<dim>4</dim>
				</port>
			</output>
		</layer>
		<layer id="168" name="Transpose_58" type="Transpose" version="opset1">
			<input>
				<port id="0" precision="FP16">
					<dim>1</dim>
					<dim>128</dim>
					<dim>2</dim>
					<dim>64</dim>
				</port>
				<port id="1" precision="I64">
					<dim>4</dim>
				</port>
			</input>
			<output>
				<port id="2" precision="FP16" names="115">
					<dim>1</dim>
					<dim>2</dim>
					<dim>128</dim>
					<dim>64</dim>
				</port>
			</output>
		</layer>
		<layer id="169" name="MatMul_113" type="MatMul" version="opset1">
			<data transpose_a="false" transpose_b="false"/>
			<input>
				<port id="0" precision="FP16">
					<dim>1</dim>
					<dim>2</dim>
					<dim>128</dim>
					<dim>128</dim>
				</port>
				<port id="1" precision="FP16">
					<dim>1</dim>
					<dim>2</dim>
					<dim>128</dim>
					<dim>64</dim>
				</port>
			</input>
			<output>
				<port id="2" precision="FP16" names="174">
					<dim>1</dim>
					<dim>2</dim>
					<dim>128</dim>
					<dim>64</dim>
				</port>
			</output>
		</layer>
		<layer id="170" name="372" type="Const" version="opset1">
			<data element_type="i64" shape="4" offset="12901416" size="32"/>
			<output>
				<port id="0" precision="I64">
					<dim>4</dim>
				</port>
			</output>
		</layer>
		<layer id="171" name="Transpose_114" type="Transpose" version="opset1">
			<input>
				<port id="0" precision="FP16">
					<dim>1</dim>
					<dim>2</dim>
					<dim>128</dim>
					<dim>64</dim>
				</port>
				<port id="1" precision="I64">
					<dim>4</dim>
				</port>
			</input>
			<output>
				<port id="2" precision="FP16" names="175">
					<dim>1</dim>
					<dim>128</dim>
					<dim>2</dim>
					<dim>64</dim>
				</port>
			</output>
		</layer>
		<layer id="172" name="Shape_115" type="ShapeOf" version="opset3">
			<data output_type="i64"/>
			<input>
				<port id="0" precision="FP16">
					<dim>1</dim>
					<dim>128</dim>
					<dim>2</dim>
					<dim>64</dim>
				</port>
			</input>
			<output>
				<port id="1" precision="I64" names="176">
					<dim>4</dim>
				</port>
			</output>
		</layer>
		<layer id="173" name="Constant_116" type="Const" version="opset1">
			<data element_type="i32" shape="" offset="12868104" size="4"/>
			<output>
				<port id="0" precision="I32" names="177"/>
			</output>
		</layer>
		<layer id="174" name="Gather_117/axis" type="Const" version="opset1">
			<data element_type="i64" shape="" offset="12867840" size="8"/>
			<output>
				<port id="0" precision="I64"/>
			</output>
		</layer>
		<layer id="175" name="Gather_117521" type="Gather" version="opset7">
			<data batch_dims="0"/>
			<input>
				<port id="0" precision="I64">
					<dim>4</dim>
				</port>
				<port id="1" precision="I32"/>
				<port id="2" precision="I64"/>
			</input>
			<output>
				<port id="3" precision="I64" names="178"/>
			</output>
		</layer>
		<layer id="176" name="Unsqueeze_121/Dims" type="Const" version="opset1">
			<data element_type="i64" shape="1" offset="12867840" size="8"/>
			<output>
				<port id="0" precision="I64">
					<dim>1</dim>
				</port>
			</output>
		</layer>
		<layer id="177" name="Unsqueeze_121/Unsqueeze" type="Unsqueeze" version="opset1">
			<input>
				<port id="0" precision="I64"/>
				<port id="1" precision="I64">
					<dim>1</dim>
				</port>
			</input>
			<output>
				<port id="2" precision="I64" names="183">
					<dim>1</dim>
				</port>
			</output>
		</layer>
		<layer id="178" name="Shape_118" type="ShapeOf" version="opset3">
			<data output_type="i64"/>
			<input>
				<port id="0" precision="FP16">
					<dim>1</dim>
					<dim>128</dim>
					<dim>2</dim>
					<dim>64</dim>
				</port>
			</input>
			<output>
				<port id="1" precision="I64" names="179">
					<dim>4</dim>
				</port>
			</output>
		</layer>
		<layer id="179" name="Constant_119" type="Const" version="opset1">
			<data element_type="i32" shape="" offset="12868108" size="4"/>
			<output>
				<port id="0" precision="I32" names="180"/>
			</output>
		</layer>
		<layer id="180" name="Gather_120/axis" type="Const" version="opset1">
			<data element_type="i64" shape="" offset="12867840" size="8"/>
			<output>
				<port id="0" precision="I64"/>
			</output>
		</layer>
		<layer id="181" name="Gather_120551" type="Gather" version="opset7">
			<data batch_dims="0"/>
			<input>
				<port id="0" precision="I64">
					<dim>4</dim>
				</port>
				<port id="1" precision="I32"/>
				<port id="2" precision="I64"/>
			</input>
			<output>
				<port id="3" precision="I64" names="181"/>
			</output>
		</layer>
		<layer id="182" name="Unsqueeze_122/Dims" type="Const" version="opset1">
			<data element_type="i64" shape="1" offset="12867840" size="8"/>
			<output>
				<port id="0" precision="I64">
					<dim>1</dim>
				</port>
			</output>
		</layer>
		<layer id="183" name="Unsqueeze_122/Unsqueeze" type="Unsqueeze" version="opset1">
			<input>
				<port id="0" precision="I64"/>
				<port id="1" precision="I64">
					<dim>1</dim>
				</port>
			</input>
			<output>
				<port id="2" precision="I64" names="184">
					<dim>1</dim>
				</port>
			</output>
		</layer>
		<layer id="184" name="395" type="Const" version="opset1">
			<data element_type="i64" shape="1" offset="13098530" size="8"/>
			<output>
				<port id="0" precision="I64" names="395">
					<dim>1</dim>
				</port>
			</output>
		</layer>
		<layer id="185" name="Concat_123" type="Concat" version="opset1">
			<data axis="0"/>
			<input>
				<port id="0" precision="I64">
					<dim>1</dim>
				</port>
				<port id="1" precision="I64">
					<dim>1</dim>
				</port>
				<port id="2" precision="I64">
					<dim>1</dim>
				</port>
			</input>
			<output>
				<port id="3" precision="I64" names="186">
					<dim>3</dim>
				</port>
			</output>
		</layer>
		<layer id="186" name="Reshape_124" type="Reshape" version="opset1">
			<data special_zero="true"/>
			<input>
				<port id="0" precision="FP16">
					<dim>1</dim>
					<dim>128</dim>
					<dim>2</dim>
					<dim>64</dim>
				</port>
				<port id="1" precision="I64">
					<dim>3</dim>
				</port>
			</input>
			<output>
				<port id="2" precision="FP16" names="187">
					<dim>1</dim>
					<dim>128</dim>
					<dim>128</dim>
				</port>
			</output>
		</layer>
		<layer id="187" name="396" type="Const" version="opset1">
			<data element_type="f16" shape="128, 128" offset="13098538" size="32768"/>
			<output>
				<port id="0" precision="FP16" names="396">
					<dim>128</dim>
					<dim>128</dim>
				</port>
			</output>
		</layer>
		<layer id="188" name="MatMul_125" type="MatMul" version="opset1">
			<data transpose_a="false" transpose_b="true"/>
			<input>
				<port id="0" precision="FP16">
					<dim>1</dim>
					<dim>128</dim>
					<dim>128</dim>
				</port>
				<port id="1" precision="FP16">
					<dim>128</dim>
					<dim>128</dim>
				</port>
			</input>
			<output>
				<port id="2" precision="FP16" names="189">
					<dim>1</dim>
					<dim>128</dim>
					<dim>128</dim>
				</port>
			</output>
		</layer>
		<layer id="189" name="bert.encoder.layer.0.attention.output.dense.bias" type="Const" version="opset1">
			<data element_type="f16" shape="1, 1, 128" offset="12868376" size="256"/>
			<output>
				<port id="0" precision="FP16" names="bert.encoder.layer.0.attention.output.dense.bias">
					<dim>1</dim>
					<dim>1</dim>
					<dim>128</dim>
				</port>
			</output>
		</layer>
		<layer id="190" name="Add_126" type="Add" version="opset1">
			<data auto_broadcast="numpy"/>
			<input>
				<port id="0" precision="FP16">
					<dim>1</dim>
					<dim>128</dim>
					<dim>128</dim>
				</port>
				<port id="1" precision="FP16">
					<dim>1</dim>
					<dim>1</dim>
					<dim>128</dim>
				</port>
			</input>
			<output>
				<port id="2" precision="FP16" names="190">
					<dim>1</dim>
					<dim>128</dim>
					<dim>128</dim>
				</port>
			</output>
		</layer>
		<layer id="191" name="Add_127" type="Add" version="opset1">
			<data auto_broadcast="numpy"/>
			<input>
				<port id="0" precision="FP16">
					<dim>1</dim>
					<dim>128</dim>
					<dim>128</dim>
				</port>
				<port id="1" precision="FP16">
					<dim>1</dim>
					<dim>128</dim>
					<dim>128</dim>
				</port>
			</input>
			<output>
				<port id="2" precision="FP16" names="191">
					<dim>1</dim>
					<dim>128</dim>
					<dim>128</dim>
				</port>
			</output>
		</layer>
		<layer id="192" name="480_input_port_1/value" type="Const" version="opset1">
			<data element_type="i64" shape="1" offset="12868112" size="8"/>
			<output>
				<port id="0" precision="I64">
					<dim>1</dim>
				</port>
			</output>
		</layer>
		<layer id="193" name="Div_136" type="MVN" version="opset6">
			<data eps="9.999999960041972e-13" normalize_variance="true" eps_mode="INSIDE_SQRT"/>
			<input>
				<port id="0" precision="FP16">
					<dim>1</dim>
					<dim>128</dim>
					<dim>128</dim>
				</port>
				<port id="1" precision="I64">
					<dim>1</dim>
				</port>
			</input>
			<output>
				<port id="2" precision="FP16" names="200">
					<dim>1</dim>
					<dim>128</dim>
					<dim>128</dim>
				</port>
			</output>
		</layer>
		<layer id="194" name="bert.encoder.layer.0.attention.output.LayerNorm.weight" type="Const" version="opset1">
			<data element_type="f16" shape="1, 1, 128" offset="12868120" size="256"/>
			<output>
				<port id="0" precision="FP16" names="bert.encoder.layer.0.attention.output.LayerNorm.weight">
					<dim>1</dim>
					<dim>1</dim>
					<dim>128</dim>
				</port>
			</output>
		</layer>
		<layer id="195" name="Mul_137" type="Multiply" version="opset1">
			<data auto_broadcast="numpy"/>
			<input>
				<port id="0" precision="FP16">
					<dim>1</dim>
					<dim>128</dim>
					<dim>128</dim>
				</port>
				<port id="1" precision="FP16">
					<dim>1</dim>
					<dim>1</dim>
					<dim>128</dim>
				</port>
			</input>
			<output>
				<port id="2" precision="FP16" names="201">
					<dim>1</dim>
					<dim>128</dim>
					<dim>128</dim>
				</port>
			</output>
		</layer>
		<layer id="196" name="bert.encoder.layer.0.attention.output.LayerNorm.bias" type="Const" version="opset1">
			<data element_type="f16" shape="1, 1, 128" offset="12868376" size="256"/>
			<output>
				<port id="0" precision="FP16" names="bert.encoder.layer.0.attention.output.LayerNorm.bias">
					<dim>1</dim>
					<dim>1</dim>
					<dim>128</dim>
				</port>
			</output>
		</layer>
		<layer id="197" name="Add_138" type="Add" version="opset1">
			<data auto_broadcast="numpy"/>
			<input>
				<port id="0" precision="FP16">
					<dim>1</dim>
					<dim>128</dim>
					<dim>128</dim>
				</port>
				<port id="1" precision="FP16">
					<dim>1</dim>
					<dim>1</dim>
					<dim>128</dim>
				</port>
			</input>
			<output>
				<port id="2" precision="FP16" names="202">
					<dim>1</dim>
					<dim>128</dim>
					<dim>128</dim>
				</port>
			</output>
		</layer>
		<layer id="198" name="397" type="Const" version="opset1">
			<data element_type="f16" shape="512, 128" offset="13131306" size="131072"/>
			<output>
				<port id="0" precision="FP16" names="397">
					<dim>512</dim>
					<dim>128</dim>
				</port>
			</output>
		</layer>
		<layer id="199" name="MatMul_139" type="MatMul" version="opset1">
			<data transpose_a="false" transpose_b="true"/>
			<input>
				<port id="0" precision="FP16">
					<dim>1</dim>
					<dim>128</dim>
					<dim>128</dim>
				</port>
				<port id="1" precision="FP16">
					<dim>512</dim>
					<dim>128</dim>
				</port>
			</input>
			<output>
				<port id="2" precision="FP16" names="204">
					<dim>1</dim>
					<dim>128</dim>
					<dim>512</dim>
				</port>
			</output>
		</layer>
		<layer id="200" name="bert.encoder.layer.0.intermediate.dense.bias" type="Const" version="opset1">
			<data element_type="f16" shape="1, 1, 512" offset="13262378" size="1024"/>
			<output>
				<port id="0" precision="FP16" names="bert.encoder.layer.0.intermediate.dense.bias">
					<dim>1</dim>
					<dim>1</dim>
					<dim>512</dim>
				</port>
			</output>
		</layer>
		<layer id="201" name="Add_140" type="Add" version="opset1">
			<data auto_broadcast="numpy"/>
			<input>
				<port id="0" precision="FP16">
					<dim>1</dim>
					<dim>128</dim>
					<dim>512</dim>
				</port>
				<port id="1" precision="FP16">
					<dim>1</dim>
					<dim>1</dim>
					<dim>512</dim>
				</port>
			</input>
			<output>
				<port id="2" precision="FP16" names="205">
					<dim>1</dim>
					<dim>128</dim>
					<dim>512</dim>
				</port>
			</output>
		</layer>
		<layer id="202" name="Mul_148" type="Gelu" version="opset7">
			<data approximation_mode="ERF"/>
			<input>
				<port id="0" precision="FP16">
					<dim>1</dim>
					<dim>128</dim>
					<dim>512</dim>
				</port>
			</input>
			<output>
				<port id="1" precision="FP16" names="213">
					<dim>1</dim>
					<dim>128</dim>
					<dim>512</dim>
				</port>
			</output>
		</layer>
		<layer id="203" name="398" type="Const" version="opset1">
			<data element_type="f16" shape="128, 512" offset="13263402" size="131072"/>
			<output>
				<port id="0" precision="FP16" names="398">
					<dim>128</dim>
					<dim>512</dim>
				</port>
			</output>
		</layer>
		<layer id="204" name="MatMul_149" type="MatMul" version="opset1">
			<data transpose_a="false" transpose_b="true"/>
			<input>
				<port id="0" precision="FP16">
					<dim>1</dim>
					<dim>128</dim>
					<dim>512</dim>
				</port>
				<port id="1" precision="FP16">
					<dim>128</dim>
					<dim>512</dim>
				</port>
			</input>
			<output>
				<port id="2" precision="FP16" names="215">
					<dim>1</dim>
					<dim>128</dim>
					<dim>128</dim>
				</port>
			</output>
		</layer>
		<layer id="205" name="bert.encoder.layer.0.output.dense.bias" type="Const" version="opset1">
			<data element_type="f16" shape="1, 1, 128" offset="12868376" size="256"/>
			<output>
				<port id="0" precision="FP16" names="bert.encoder.layer.0.output.dense.bias">
					<dim>1</dim>
					<dim>1</dim>
					<dim>128</dim>
				</port>
			</output>
		</layer>
		<layer id="206" name="Add_150" type="Add" version="opset1">
			<data auto_broadcast="numpy"/>
			<input>
				<port id="0" precision="FP16">
					<dim>1</dim>
					<dim>128</dim>
					<dim>128</dim>
				</port>
				<port id="1" precision="FP16">
					<dim>1</dim>
					<dim>1</dim>
					<dim>128</dim>
				</port>
			</input>
			<output>
				<port id="2" precision="FP16" names="216">
					<dim>1</dim>
					<dim>128</dim>
					<dim>128</dim>
				</port>
			</output>
		</layer>
		<layer id="207" name="Add_151" type="Add" version="opset1">
			<data auto_broadcast="numpy"/>
			<input>
				<port id="0" precision="FP16">
					<dim>1</dim>
					<dim>128</dim>
					<dim>128</dim>
				</port>
				<port id="1" precision="FP16">
					<dim>1</dim>
					<dim>128</dim>
					<dim>128</dim>
				</port>
			</input>
			<output>
				<port id="2" precision="FP16" names="217">
					<dim>1</dim>
					<dim>128</dim>
					<dim>128</dim>
				</port>
			</output>
		</layer>
		<layer id="208" name="478_input_port_1/value" type="Const" version="opset1">
			<data element_type="i64" shape="1" offset="12868112" size="8"/>
			<output>
				<port id="0" precision="I64">
					<dim>1</dim>
				</port>
			</output>
		</layer>
		<layer id="209" name="Div_160" type="MVN" version="opset6">
			<data eps="9.999999960041972e-13" normalize_variance="true" eps_mode="INSIDE_SQRT"/>
			<input>
				<port id="0" precision="FP16">
					<dim>1</dim>
					<dim>128</dim>
					<dim>128</dim>
				</port>
				<port id="1" precision="I64">
					<dim>1</dim>
				</port>
			</input>
			<output>
				<port id="2" precision="FP16" names="226">
					<dim>1</dim>
					<dim>128</dim>
					<dim>128</dim>
				</port>
			</output>
		</layer>
		<layer id="210" name="bert.encoder.layer.0.output.LayerNorm.weight" type="Const" version="opset1">
			<data element_type="f16" shape="1, 1, 128" offset="12868120" size="256"/>
			<output>
				<port id="0" precision="FP16" names="bert.encoder.layer.0.output.LayerNorm.weight">
					<dim>1</dim>
					<dim>1</dim>
					<dim>128</dim>
				</port>
			</output>
		</layer>
		<layer id="211" name="Mul_161" type="Multiply" version="opset1">
			<data auto_broadcast="numpy"/>
			<input>
				<port id="0" precision="FP16">
					<dim>1</dim>
					<dim>128</dim>
					<dim>128</dim>
				</port>
				<port id="1" precision="FP16">
					<dim>1</dim>
					<dim>1</dim>
					<dim>128</dim>
				</port>
			</input>
			<output>
				<port id="2" precision="FP16" names="227">
					<dim>1</dim>
					<dim>128</dim>
					<dim>128</dim>
				</port>
			</output>
		</layer>
		<layer id="212" name="bert.encoder.layer.0.output.LayerNorm.bias" type="Const" version="opset1">
			<data element_type="f16" shape="1, 1, 128" offset="12868376" size="256"/>
			<output>
				<port id="0" precision="FP16" names="bert.encoder.layer.0.output.LayerNorm.bias">
					<dim>1</dim>
					<dim>1</dim>
					<dim>128</dim>
				</port>
			</output>
		</layer>
		<layer id="213" name="Add_162" type="Add" version="opset1">
			<data auto_broadcast="numpy"/>
			<input>
				<port id="0" precision="FP16">
					<dim>1</dim>
					<dim>128</dim>
					<dim>128</dim>
				</port>
				<port id="1" precision="FP16">
					<dim>1</dim>
					<dim>1</dim>
					<dim>128</dim>
				</port>
			</input>
			<output>
				<port id="2" precision="FP16" names="228">
					<dim>1</dim>
					<dim>128</dim>
					<dim>128</dim>
				</port>
			</output>
		</layer>
		<layer id="214" name="399" type="Const" version="opset1">
			<data element_type="f16" shape="128, 128" offset="13394474" size="32768"/>
			<output>
				<port id="0" precision="FP16" names="399">
					<dim>128</dim>
					<dim>128</dim>
				</port>
			</output>
		</layer>
		<layer id="215" name="MatMul_163" type="MatMul" version="opset1">
			<data transpose_a="false" transpose_b="true"/>
			<input>
				<port id="0" precision="FP16">
					<dim>1</dim>
					<dim>128</dim>
					<dim>128</dim>
				</port>
				<port id="1" precision="FP16">
					<dim>128</dim>
					<dim>128</dim>
				</port>
			</input>
			<output>
				<port id="2" precision="FP16" names="230">
					<dim>1</dim>
					<dim>128</dim>
					<dim>128</dim>
				</port>
			</output>
		</layer>
		<layer id="216" name="bert.encoder.layer.1.attention.self.query.bias" type="Const" version="opset1">
			<data element_type="f16" shape="1, 1, 128" offset="12868376" size="256"/>
			<output>
				<port id="0" precision="FP16" names="bert.encoder.layer.1.attention.self.query.bias">
					<dim>1</dim>
					<dim>1</dim>
					<dim>128</dim>
				</port>
			</output>
		</layer>
		<layer id="217" name="Add_164" type="Add" version="opset1">
			<data auto_broadcast="numpy"/>
			<input>
				<port id="0" precision="FP16">
					<dim>1</dim>
					<dim>128</dim>
					<dim>128</dim>
				</port>
				<port id="1" precision="FP16">
					<dim>1</dim>
					<dim>1</dim>
					<dim>128</dim>
				</port>
			</input>
			<output>
				<port id="2" precision="FP16" names="231">
					<dim>1</dim>
					<dim>128</dim>
					<dim>128</dim>
				</port>
			</output>
		</layer>
		<layer id="218" name="Shape_191" type="ShapeOf" version="opset3">
			<data output_type="i64"/>
			<input>
				<port id="0" precision="FP16">
					<dim>1</dim>
					<dim>128</dim>
					<dim>128</dim>
				</port>
			</input>
			<output>
				<port id="1" precision="I64" names="268">
					<dim>3</dim>
				</port>
			</output>
		</layer>
		<layer id="219" name="Constant_192" type="Const" version="opset1">
			<data element_type="i32" shape="" offset="12868104" size="4"/>
			<output>
				<port id="0" precision="I32" names="269"/>
			</output>
		</layer>
		<layer id="220" name="Gather_193/axis" type="Const" version="opset1">
			<data element_type="i64" shape="" offset="12867840" size="8"/>
			<output>
				<port id="0" precision="I64"/>
			</output>
		</layer>
		<layer id="221" name="Gather_193565" type="Gather" version="opset7">
			<data batch_dims="0"/>
			<input>
				<port id="0" precision="I64">
					<dim>3</dim>
				</port>
				<port id="1" precision="I32"/>
				<port id="2" precision="I64"/>
			</input>
			<output>
				<port id="3" precision="I64" names="270"/>
			</output>
		</layer>
		<layer id="222" name="Unsqueeze_197/Dims" type="Const" version="opset1">
			<data element_type="i64" shape="1" offset="12867840" size="8"/>
			<output>
				<port id="0" precision="I64">
					<dim>1</dim>
				</port>
			</output>
		</layer>
		<layer id="223" name="Unsqueeze_197/Unsqueeze" type="Unsqueeze" version="opset1">
			<input>
				<port id="0" precision="I64"/>
				<port id="1" precision="I64">
					<dim>1</dim>
				</port>
			</input>
			<output>
				<port id="2" precision="I64" names="276">
					<dim>1</dim>
				</port>
			</output>
		</layer>
		<layer id="224" name="Shape_194" type="ShapeOf" version="opset3">
			<data output_type="i64"/>
			<input>
				<port id="0" precision="FP16">
					<dim>1</dim>
					<dim>128</dim>
					<dim>128</dim>
				</port>
			</input>
			<output>
				<port id="1" precision="I64" names="271">
					<dim>3</dim>
				</port>
			</output>
		</layer>
		<layer id="225" name="Constant_195" type="Const" version="opset1">
			<data element_type="i32" shape="" offset="12868108" size="4"/>
			<output>
				<port id="0" precision="I32" names="272"/>
			</output>
		</layer>
		<layer id="226" name="Gather_196/axis" type="Const" version="opset1">
			<data element_type="i64" shape="" offset="12867840" size="8"/>
			<output>
				<port id="0" precision="I64"/>
			</output>
		</layer>
		<layer id="227" name="Gather_196533" type="Gather" version="opset7">
			<data batch_dims="0"/>
			<input>
				<port id="0" precision="I64">
					<dim>3</dim>
				</port>
				<port id="1" precision="I32"/>
				<port id="2" precision="I64"/>
			</input>
			<output>
				<port id="3" precision="I64" names="273"/>
			</output>
		</layer>
		<layer id="228" name="Unsqueeze_198/Dims" type="Const" version="opset1">
			<data element_type="i64" shape="1" offset="12867840" size="8"/>
			<output>
				<port id="0" precision="I64">
					<dim>1</dim>
				</port>
			</output>
		</layer>
		<layer id="229" name="Unsqueeze_198/Unsqueeze" type="Unsqueeze" version="opset1">
			<input>
				<port id="0" precision="I64"/>
				<port id="1" precision="I64">
					<dim>1</dim>
				</port>
			</input>
			<output>
				<port id="2" precision="I64" names="277">
					<dim>1</dim>
				</port>
			</output>
		</layer>
		<layer id="230" name="406" type="Const" version="opset1">
			<data element_type="i64" shape="1" offset="12901400" size="8"/>
			<output>
				<port id="0" precision="I64" names="406">
					<dim>1</dim>
				</port>
			</output>
		</layer>
		<layer id="231" name="407" type="Const" version="opset1">
			<data element_type="i64" shape="1" offset="12901408" size="8"/>
			<output>
				<port id="0" precision="I64" names="407">
					<dim>1</dim>
				</port>
			</output>
		</layer>
		<layer id="232" name="Concat_199" type="Concat" version="opset1">
			<data axis="0"/>
			<input>
				<port id="0" precision="I64">
					<dim>1</dim>
				</port>
				<port id="1" precision="I64">
					<dim>1</dim>
				</port>
				<port id="2" precision="I64">
					<dim>1</dim>
				</port>
				<port id="3" precision="I64">
					<dim>1</dim>
				</port>
			</input>
			<output>
				<port id="4" precision="I64" names="280">
					<dim>4</dim>
				</port>
			</output>
		</layer>
		<layer id="233" name="Reshape_200" type="Reshape" version="opset1">
			<data special_zero="true"/>
			<input>
				<port id="0" precision="FP16">
					<dim>1</dim>
					<dim>128</dim>
					<dim>128</dim>
				</port>
				<port id="1" precision="I64">
					<dim>4</dim>
				</port>
			</input>
			<output>
				<port id="2" precision="FP16" names="281">
					<dim>1</dim>
					<dim>128</dim>
					<dim>2</dim>
					<dim>64</dim>
				</port>
			</output>
		</layer>
		<layer id="234" name="364" type="Const" version="opset1">
			<data element_type="i64" shape="4" offset="12901416" size="32"/>
			<output>
				<port id="0" precision="I64">
					<dim>4</dim>
				</port>
			</output>
		</layer>
		<layer id="235" name="Transpose_201" type="Transpose" version="opset1">
			<input>
				<port id="0" precision="FP16">
					<dim>1</dim>
					<dim>128</dim>
					<dim>2</dim>
					<dim>64</dim>
				</port>
				<port id="1" precision="I64">
					<dim>4</dim>
				</port>
			</input>
			<output>
				<port id="2" precision="FP16" names="282">
					<dim>1</dim>
					<dim>2</dim>
					<dim>128</dim>
					<dim>64</dim>
				</port>
			</output>
		</layer>
		<layer id="236" name="Constant_202" type="Const" version="opset1">
			<data element_type="i32" shape="" offset="12868104" size="4"/>
			<output>
				<port id="0" precision="I32" names="283"/>
			</output>
		</layer>
		<layer id="237" name="Gather_203/axis" type="Const" version="opset1">
			<data element_type="i64" shape="" offset="12901448" size="8"/>
			<output>
				<port id="0" precision="I64"/>
			</output>
		</layer>
		<layer id="238" name="Gather_203509" type="Gather" version="opset7">
			<data batch_dims="0"/>
			<input>
				<port id="0" precision="FP16">
					<dim>1</dim>
					<dim>2</dim>
					<dim>128</dim>
					<dim>64</dim>
				</port>
				<port id="1" precision="I32"/>
				<port id="2" precision="I64"/>
			</input>
			<output>
				<port id="3" precision="FP16" names="284">
					<dim>1</dim>
					<dim>128</dim>
					<dim>64</dim>
				</port>
			</output>
		</layer>
		<layer id="239" name="400" type="Const" version="opset1">
			<data element_type="f16" shape="128, 128" offset="13427242" size="32768"/>
			<output>
				<port id="0" precision="FP16" names="400">
					<dim>128</dim>
					<dim>128</dim>
				</port>
			</output>
		</layer>
		<layer id="240" name="MatMul_165" type="MatMul" version="opset1">
			<data transpose_a="false" transpose_b="true"/>
			<input>
				<port id="0" precision="FP16">
					<dim>1</dim>
					<dim>128</dim>
					<dim>128</dim>
				</port>
				<port id="1" precision="FP16">
					<dim>128</dim>
					<dim>128</dim>
				</port>
			</input>
			<output>
				<port id="2" precision="FP16" names="233">
					<dim>1</dim>
					<dim>128</dim>
					<dim>128</dim>
				</port>
			</output>
		</layer>
		<layer id="241" name="bert.encoder.layer.1.attention.self.key.bias" type="Const" version="opset1">
			<data element_type="f16" shape="1, 1, 128" offset="12868376" size="256"/>
			<output>
				<port id="0" precision="FP16" names="bert.encoder.layer.1.attention.self.key.bias">
					<dim>1</dim>
					<dim>1</dim>
					<dim>128</dim>
				</port>
			</output>
		</layer>
		<layer id="242" name="Add_166" type="Add" version="opset1">
			<data auto_broadcast="numpy"/>
			<input>
				<port id="0" precision="FP16">
					<dim>1</dim>
					<dim>128</dim>
					<dim>128</dim>
				</port>
				<port id="1" precision="FP16">
					<dim>1</dim>
					<dim>1</dim>
					<dim>128</dim>
				</port>
			</input>
			<output>
				<port id="2" precision="FP16" names="234">
					<dim>1</dim>
					<dim>128</dim>
					<dim>128</dim>
				</port>
			</output>
		</layer>
		<layer id="243" name="Shape_167" type="ShapeOf" version="opset3">
			<data output_type="i64"/>
			<input>
				<port id="0" precision="FP16">
					<dim>1</dim>
					<dim>128</dim>
					<dim>128</dim>
				</port>
			</input>
			<output>
				<port id="1" precision="I64" names="235">
					<dim>3</dim>
				</port>
			</output>
		</layer>
		<layer id="244" name="Constant_168" type="Const" version="opset1">
			<data element_type="i32" shape="" offset="12868104" size="4"/>
			<output>
				<port id="0" precision="I32" names="236"/>
			</output>
		</layer>
		<layer id="245" name="Gather_169/axis" type="Const" version="opset1">
			<data element_type="i64" shape="" offset="12867840" size="8"/>
			<output>
				<port id="0" precision="I64"/>
			</output>
		</layer>
		<layer id="246" name="Gather_169547" type="Gather" version="opset7">
			<data batch_dims="0"/>
			<input>
				<port id="0" precision="I64">
					<dim>3</dim>
				</port>
				<port id="1" precision="I32"/>
				<port id="2" precision="I64"/>
			</input>
			<output>
				<port id="3" precision="I64" names="237"/>
			</output>
		</layer>
		<layer id="247" name="Unsqueeze_173/Dims" type="Const" version="opset1">
			<data element_type="i64" shape="1" offset="12867840" size="8"/>
			<output>
				<port id="0" precision="I64">
					<dim>1</dim>
				</port>
			</output>
		</layer>
		<layer id="248" name="Unsqueeze_173/Unsqueeze" type="Unsqueeze" version="opset1">
			<input>
				<port id="0" precision="I64"/>
				<port id="1" precision="I64">
					<dim>1</dim>
				</port>
			</input>
			<output>
				<port id="2" precision="I64" names="243">
					<dim>1</dim>
				</port>
			</output>
		</layer>
		<layer id="249" name="Shape_170" type="ShapeOf" version="opset3">
			<data output_type="i64"/>
			<input>
				<port id="0" precision="FP16">
					<dim>1</dim>
					<dim>128</dim>
					<dim>128</dim>
				</port>
			</input>
			<output>
				<port id="1" precision="I64" names="238">
					<dim>3</dim>
				</port>
			</output>
		</layer>
		<layer id="250" name="Constant_171" type="Const" version="opset1">
			<data element_type="i32" shape="" offset="12868108" size="4"/>
			<output>
				<port id="0" precision="I32" names="239"/>
			</output>
		</layer>
		<layer id="251" name="Gather_172/axis" type="Const" version="opset1">
			<data element_type="i64" shape="" offset="12867840" size="8"/>
			<output>
				<port id="0" precision="I64"/>
			</output>
		</layer>
		<layer id="252" name="Gather_172539" type="Gather" version="opset7">
			<data batch_dims="0"/>
			<input>
				<port id="0" precision="I64">
					<dim>3</dim>
				</port>
				<port id="1" precision="I32"/>
				<port id="2" precision="I64"/>
			</input>
			<output>
				<port id="3" precision="I64" names="240"/>
			</output>
		</layer>
		<layer id="253" name="Unsqueeze_174/Dims" type="Const" version="opset1">
			<data element_type="i64" shape="1" offset="12867840" size="8"/>
			<output>
				<port id="0" precision="I64">
					<dim>1</dim>
				</port>
			</output>
		</layer>
		<layer id="254" name="Unsqueeze_174/Unsqueeze" type="Unsqueeze" version="opset1">
			<input>
				<port id="0" precision="I64"/>
				<port id="1" precision="I64">
					<dim>1</dim>
				</port>
			</input>
			<output>
				<port id="2" precision="I64" names="244">
					<dim>1</dim>
				</port>
			</output>
		</layer>
		<layer id="255" name="401" type="Const" version="opset1">
			<data element_type="i64" shape="1" offset="12901400" size="8"/>
			<output>
				<port id="0" precision="I64" names="401">
					<dim>1</dim>
				</port>
			</output>
		</layer>
		<layer id="256" name="402" type="Const" version="opset1">
			<data element_type="i64" shape="1" offset="12901408" size="8"/>
			<output>
				<port id="0" precision="I64" names="402">
					<dim>1</dim>
				</port>
			</output>
		</layer>
		<layer id="257" name="Concat_175" type="Concat" version="opset1">
			<data axis="0"/>
			<input>
				<port id="0" precision="I64">
					<dim>1</dim>
				</port>
				<port id="1" precision="I64">
					<dim>1</dim>
				</port>
				<port id="2" precision="I64">
					<dim>1</dim>
				</port>
				<port id="3" precision="I64">
					<dim>1</dim>
				</port>
			</input>
			<output>
				<port id="4" precision="I64" names="247">
					<dim>4</dim>
				</port>
			</output>
		</layer>
		<layer id="258" name="Reshape_176" type="Reshape" version="opset1">
			<data special_zero="true"/>
			<input>
				<port id="0" precision="FP16">
					<dim>1</dim>
					<dim>128</dim>
					<dim>128</dim>
				</port>
				<port id="1" precision="I64">
					<dim>4</dim>
				</port>
			</input>
			<output>
				<port id="2" precision="FP16" names="248">
					<dim>1</dim>
					<dim>128</dim>
					<dim>2</dim>
					<dim>64</dim>
				</port>
			</output>
		</layer>
		<layer id="259" name="367" type="Const" version="opset1">
			<data element_type="i64" shape="4" offset="12901416" size="32"/>
			<output>
				<port id="0" precision="I64">
					<dim>4</dim>
				</port>
			</output>
		</layer>
		<layer id="260" name="Transpose_177" type="Transpose" version="opset1">
			<input>
				<port id="0" precision="FP16">
					<dim>1</dim>
					<dim>128</dim>
					<dim>2</dim>
					<dim>64</dim>
				</port>
				<port id="1" precision="I64">
					<dim>4</dim>
				</port>
			</input>
			<output>
				<port id="2" precision="FP16" names="249">
					<dim>1</dim>
					<dim>2</dim>
					<dim>128</dim>
					<dim>64</dim>
				</port>
			</output>
		</layer>
		<layer id="261" name="Constant_204" type="Const" version="opset1">
			<data element_type="i32" shape="" offset="12868104" size="4"/>
			<output>
				<port id="0" precision="I32" names="285"/>
			</output>
		</layer>
		<layer id="262" name="Gather_205/axis" type="Const" version="opset1">
			<data element_type="i64" shape="" offset="12901448" size="8"/>
			<output>
				<port id="0" precision="I64"/>
			</output>
		</layer>
		<layer id="263" name="Gather_205537" type="Gather" version="opset7">
			<data batch_dims="0"/>
			<input>
				<port id="0" precision="FP16">
					<dim>1</dim>
					<dim>2</dim>
					<dim>128</dim>
					<dim>64</dim>
				</port>
				<port id="1" precision="I32"/>
				<port id="2" precision="I64"/>
			</input>
			<output>
				<port id="3" precision="FP16" names="286">
					<dim>1</dim>
					<dim>128</dim>
					<dim>64</dim>
				</port>
			</output>
		</layer>
		<layer id="264" name="368" type="Const" version="opset1">
			<data element_type="i64" shape="3" offset="12934224" size="24"/>
			<output>
				<port id="0" precision="I64">
					<dim>3</dim>
				</port>
			</output>
		</layer>
		<layer id="265" name="Transpose_206" type="Transpose" version="opset1">
			<input>
				<port id="0" precision="FP16">
					<dim>1</dim>
					<dim>128</dim>
					<dim>64</dim>
				</port>
				<port id="1" precision="I64">
					<dim>3</dim>
				</port>
			</input>
			<output>
				<port id="2" precision="FP16" names="287">
					<dim>1</dim>
					<dim>64</dim>
					<dim>128</dim>
				</port>
			</output>
		</layer>
		<layer id="266" name="MatMul_207" type="MatMul" version="opset1">
			<data transpose_a="false" transpose_b="false"/>
			<input>
				<port id="0" precision="FP16">
					<dim>1</dim>
					<dim>128</dim>
					<dim>64</dim>
				</port>
				<port id="1" precision="FP16">
					<dim>1</dim>
					<dim>64</dim>
					<dim>128</dim>
				</port>
			</input>
			<output>
				<port id="2" precision="FP16" names="288">
					<dim>1</dim>
					<dim>128</dim>
					<dim>128</dim>
				</port>
			</output>
		</layer>
		<layer id="267" name="Unsqueeze_214/Dims" type="Const" version="opset1">
			<data element_type="i64" shape="1" offset="12901448" size="8"/>
			<output>
				<port id="0" precision="I64">
					<dim>1</dim>
				</port>
			</output>
		</layer>
		<layer id="268" name="Unsqueeze_214/Unsqueeze" type="Unsqueeze" version="opset1">
			<input>
				<port id="0" precision="FP16">
					<dim>1</dim>
					<dim>128</dim>
					<dim>128</dim>
				</port>
				<port id="1" precision="I64">
					<dim>1</dim>
				</port>
			</input>
			<output>
				<port id="2" precision="FP16" names="295">
					<dim>1</dim>
					<dim>1</dim>
					<dim>128</dim>
					<dim>128</dim>
				</port>
			</output>
		</layer>
		<layer id="269" name="Constant_208" type="Const" version="opset1">
			<data element_type="i32" shape="" offset="12868108" size="4"/>
			<output>
				<port id="0" precision="I32" names="289"/>
			</output>
		</layer>
		<layer id="270" name="Gather_209/axis" type="Const" version="opset1">
			<data element_type="i64" shape="" offset="12901448" size="8"/>
			<output>
				<port id="0" precision="I64"/>
			</output>
		</layer>
		<layer id="271" name="Gather_209529" type="Gather" version="opset7">
			<data batch_dims="0"/>
			<input>
				<port id="0" precision="FP16">
					<dim>1</dim>
					<dim>2</dim>
					<dim>128</dim>
					<dim>64</dim>
				</port>
				<port id="1" precision="I32"/>
				<port id="2" precision="I64"/>
			</input>
			<output>
				<port id="3" precision="FP16" names="290">
					<dim>1</dim>
					<dim>128</dim>
					<dim>64</dim>
				</port>
			</output>
		</layer>
		<layer id="272" name="Constant_210" type="Const" version="opset1">
			<data element_type="i32" shape="" offset="12868108" size="4"/>
			<output>
				<port id="0" precision="I32" names="291"/>
			</output>
		</layer>
		<layer id="273" name="Gather_211/axis" type="Const" version="opset1">
			<data element_type="i64" shape="" offset="12901448" size="8"/>
			<output>
				<port id="0" precision="I64"/>
			</output>
		</layer>
		<layer id="274" name="Gather_211531" type="Gather" version="opset7">
			<data batch_dims="0"/>
			<input>
				<port id="0" precision="FP16">
					<dim>1</dim>
					<dim>2</dim>
					<dim>128</dim>
					<dim>64</dim>
				</port>
				<port id="1" precision="I32"/>
				<port id="2" precision="I64"/>
			</input>
			<output>
				<port id="3" precision="FP16" names="292">
					<dim>1</dim>
					<dim>128</dim>
					<dim>64</dim>
				</port>
			</output>
		</layer>
		<layer id="275" name="362" type="Const" version="opset1">
			<data element_type="i64" shape="3" offset="12934224" size="24"/>
			<output>
				<port id="0" precision="I64">
					<dim>3</dim>
				</port>
			</output>
		</layer>
		<layer id="276" name="Transpose_212" type="Transpose" version="opset1">
			<input>
				<port id="0" precision="FP16">
					<dim>1</dim>
					<dim>128</dim>
					<dim>64</dim>
				</port>
				<port id="1" precision="I64">
					<dim>3</dim>
				</port>
			</input>
			<output>
				<port id="2" precision="FP16" names="293">
					<dim>1</dim>
					<dim>64</dim>
					<dim>128</dim>
				</port>
			</output>
		</layer>
		<layer id="277" name="MatMul_213" type="MatMul" version="opset1">
			<data transpose_a="false" transpose_b="false"/>
			<input>
				<port id="0" precision="FP16">
					<dim>1</dim>
					<dim>128</dim>
					<dim>64</dim>
				</port>
				<port id="1" precision="FP16">
					<dim>1</dim>
					<dim>64</dim>
					<dim>128</dim>
				</port>
			</input>
			<output>
				<port id="2" precision="FP16" names="294">
					<dim>1</dim>
					<dim>128</dim>
					<dim>128</dim>
				</port>
			</output>
		</layer>
		<layer id="278" name="Unsqueeze_215/Dims" type="Const" version="opset1">
			<data element_type="i64" shape="1" offset="12901448" size="8"/>
			<output>
				<port id="0" precision="I64">
					<dim>1</dim>
				</port>
			</output>
		</layer>
		<layer id="279" name="Unsqueeze_215/Unsqueeze" type="Unsqueeze" version="opset1">
			<input>
				<port id="0" precision="FP16">
					<dim>1</dim>
					<dim>128</dim>
					<dim>128</dim>
				</port>
				<port id="1" precision="I64">
					<dim>1</dim>
				</port>
			</input>
			<output>
				<port id="2" precision="FP16" names="296">
					<dim>1</dim>
					<dim>1</dim>
					<dim>128</dim>
					<dim>128</dim>
				</port>
			</output>
		</layer>
		<layer id="280" name="Concat_216" type="Concat" version="opset1">
			<data axis="1"/>
			<input>
				<port id="0" precision="FP16">
					<dim>1</dim>
					<dim>1</dim>
					<dim>128</dim>
					<dim>128</dim>
				</port>
				<port id="1" precision="FP16">
					<dim>1</dim>
					<dim>1</dim>
					<dim>128</dim>
					<dim>128</dim>
				</port>
			</input>
			<output>
				<port id="2" precision="FP16" names="297">
					<dim>1</dim>
					<dim>2</dim>
					<dim>128</dim>
					<dim>128</dim>
				</port>
			</output>
		</layer>
		<layer id="281" name="bert.encoder.layer.1.attention.self.distance_embedding.weight" type="Const" version="opset1">
			<data element_type="f16" shape="1027, 64" offset="13460010" size="131456"/>
			<output>
				<port id="0" precision="FP16" names="bert.encoder.layer.1.attention.self.distance_embedding.weight">
					<dim>1027</dim>
					<dim>64</dim>
				</port>
			</output>
		</layer>
		<layer id="282" name="Constant_221" type="Const" version="opset1">
			<data element_type="i64" shape="" offset="12867840" size="8"/>
			<output>
				<port id="0" precision="I64" names="302"/>
			</output>
		</layer>
		<layer id="283" name="Shape_217" type="ShapeOf" version="opset3">
			<data output_type="i64"/>
			<input>
				<port id="0" precision="FP16">
					<dim>1</dim>
					<dim>128</dim>
					<dim>128</dim>
				</port>
			</input>
			<output>
				<port id="1" precision="I64" names="298">
					<dim>3</dim>
				</port>
			</output>
		</layer>
		<layer id="284" name="Constant_218" type="Const" version="opset1">
			<data element_type="i32" shape="" offset="12868108" size="4"/>
			<output>
				<port id="0" precision="I32" names="299"/>
			</output>
		</layer>
		<layer id="285" name="Gather_219/axis" type="Const" version="opset1">
			<data element_type="i64" shape="" offset="12867840" size="8"/>
			<output>
				<port id="0" precision="I64"/>
			</output>
		</layer>
		<layer id="286" name="Gather_219545" type="Gather" version="opset7">
			<data batch_dims="0"/>
			<input>
				<port id="0" precision="I64">
					<dim>3</dim>
				</port>
				<port id="1" precision="I32"/>
				<port id="2" precision="I64"/>
			</input>
			<output>
				<port id="3" precision="I64" names="300,301,307"/>
			</output>
		</layer>
		<layer id="287" name="Constant_222" type="Const" version="opset1">
			<data element_type="i64" shape="" offset="12901448" size="8"/>
			<output>
				<port id="0" precision="I64" names="303"/>
			</output>
		</layer>
		<layer id="288" name="Range_223" type="Range" version="opset4">
			<data output_type="i64"/>
			<input>
				<port id="0" precision="I64"/>
				<port id="1" precision="I64"/>
				<port id="2" precision="I64"/>
			</input>
			<output>
				<port id="3" precision="I64" names="304">
					<dim>128</dim>
				</port>
			</output>
		</layer>
		<layer id="289" name="Constant_224" type="Const" version="opset1">
			<data element_type="i64" shape="2" offset="13065704" size="16"/>
			<output>
				<port id="0" precision="I64" names="305">
					<dim>2</dim>
				</port>
			</output>
		</layer>
		<layer id="290" name="Reshape_225" type="Reshape" version="opset1">
			<data special_zero="true"/>
			<input>
				<port id="0" precision="I64">
					<dim>128</dim>
				</port>
				<port id="1" precision="I64">
					<dim>2</dim>
				</port>
			</input>
			<output>
				<port id="2" precision="I64" names="306">
					<dim>128</dim>
					<dim>1</dim>
				</port>
			</output>
		</layer>
		<layer id="291" name="Constant_227" type="Const" version="opset1">
			<data element_type="i64" shape="" offset="12867840" size="8"/>
			<output>
				<port id="0" precision="I64" names="308"/>
			</output>
		</layer>
		<layer id="292" name="Constant_228" type="Const" version="opset1">
			<data element_type="i64" shape="" offset="12901448" size="8"/>
			<output>
				<port id="0" precision="I64" names="309"/>
			</output>
		</layer>
		<layer id="293" name="Range_229" type="Range" version="opset4">
			<data output_type="i64"/>
			<input>
				<port id="0" precision="I64"/>
				<port id="1" precision="I64"/>
				<port id="2" precision="I64"/>
			</input>
			<output>
				<port id="3" precision="I64" names="310">
					<dim>128</dim>
				</port>
			</output>
		</layer>
		<layer id="294" name="Constant_230" type="Const" version="opset1">
			<data element_type="i64" shape="2" offset="13065720" size="16"/>
			<output>
				<port id="0" precision="I64" names="311">
					<dim>2</dim>
				</port>
			</output>
		</layer>
		<layer id="295" name="Reshape_231" type="Reshape" version="opset1">
			<data special_zero="true"/>
			<input>
				<port id="0" precision="I64">
					<dim>128</dim>
				</port>
				<port id="1" precision="I64">
					<dim>2</dim>
				</port>
			</input>
			<output>
				<port id="2" precision="I64" names="312">
					<dim>1</dim>
					<dim>128</dim>
				</port>
			</output>
		</layer>
		<layer id="296" name="Sub_232" type="Subtract" version="opset1">
			<data auto_broadcast="numpy"/>
			<input>
				<port id="0" precision="I64">
					<dim>128</dim>
					<dim>1</dim>
				</port>
				<port id="1" precision="I64">
					<dim>1</dim>
					<dim>128</dim>
				</port>
			</input>
			<output>
				<port id="2" precision="I64" names="313">
					<dim>128</dim>
					<dim>128</dim>
				</port>
			</output>
		</layer>
		<layer id="297" name="Constant_233" type="Const" version="opset1">
			<data element_type="i64" shape="1, 1" offset="13065736" size="8"/>
			<output>
				<port id="0" precision="I64" names="314">
					<dim>1</dim>
					<dim>1</dim>
				</port>
			</output>
		</layer>
		<layer id="298" name="Add_234" type="Add" version="opset1">
			<data auto_broadcast="numpy"/>
			<input>
				<port id="0" precision="I64">
					<dim>128</dim>
					<dim>128</dim>
				</port>
				<port id="1" precision="I64">
					<dim>1</dim>
					<dim>1</dim>
				</port>
			</input>
			<output>
				<port id="2" precision="I64" names="315">
					<dim>128</dim>
					<dim>128</dim>
				</port>
			</output>
		</layer>
		<layer id="299" name="Constant_235" type="Const" version="opset1">
			<data element_type="i64" shape="1, 1" offset="12901448" size="8"/>
			<output>
				<port id="0" precision="I64" names="316">
					<dim>1</dim>
					<dim>1</dim>
				</port>
			</output>
		</layer>
		<layer id="300" name="Sub_236" type="Subtract" version="opset1">
			<data auto_broadcast="numpy"/>
			<input>
				<port id="0" precision="I64">
					<dim>128</dim>
					<dim>128</dim>
				</port>
				<port id="1" precision="I64">
					<dim>1</dim>
					<dim>1</dim>
				</port>
			</input>
			<output>
				<port id="2" precision="I64">
					<dim>128</dim>
					<dim>128</dim>
				</port>
			</output>
		</layer>
		<layer id="301" name="Gather_237511/Cast_1" type="Convert" version="opset1">
			<data destination_type="i32"/>
			<input>
				<port id="0" precision="I64">
					<dim>128</dim>
					<dim>128</dim>
				</port>
			</input>
			<output>
				<port id="1" precision="I32" names="317">
					<dim>128</dim>
					<dim>128</dim>
				</port>
			</output>
		</layer>
		<layer id="302" name="Gather_237/axis" type="Const" version="opset1">
			<data element_type="i64" shape="" offset="12867840" size="8"/>
			<output>
				<port id="0" precision="I64"/>
			</output>
		</layer>
		<layer id="303" name="Gather_237511" type="Gather" version="opset7">
			<data batch_dims="0"/>
			<input>
				<port id="0" precision="FP16">
					<dim>1027</dim>
					<dim>64</dim>
				</port>
				<port id="1" precision="I32">
					<dim>128</dim>
					<dim>128</dim>
				</port>
				<port id="2" precision="I64"/>
			</input>
			<output>
				<port id="3" precision="FP16" names="318,319">
					<dim>128</dim>
					<dim>128</dim>
					<dim>64</dim>
				</port>
			</output>
		</layer>
		<layer id="304" name="Einsum_239" type="Einsum" version="opset7">
			<data equation="bhld,lrd-&gt;bhlr"/>
			<input>
				<port id="0" precision="FP16">
					<dim>1</dim>
					<dim>2</dim>
					<dim>128</dim>
					<dim>64</dim>
				</port>
				<port id="1" precision="FP16">
					<dim>128</dim>
					<dim>128</dim>
					<dim>64</dim>
				</port>
			</input>
			<output>
				<port id="2" precision="FP16" names="320">
					<dim>1</dim>
					<dim>2</dim>
					<dim>128</dim>
					<dim>128</dim>
				</port>
			</output>
		</layer>
		<layer id="305" name="Add_240" type="Add" version="opset1">
			<data auto_broadcast="numpy"/>
			<input>
				<port id="0" precision="FP16">
					<dim>1</dim>
					<dim>2</dim>
					<dim>128</dim>
					<dim>128</dim>
				</port>
				<port id="1" precision="FP16">
					<dim>1</dim>
					<dim>2</dim>
					<dim>128</dim>
					<dim>128</dim>
				</port>
			</input>
			<output>
				<port id="2" precision="FP16" names="321">
					<dim>1</dim>
					<dim>2</dim>
					<dim>128</dim>
					<dim>128</dim>
				</port>
			</output>
		</layer>
		<layer id="306" name="Constant_241" type="Const" version="opset1">
			<data element_type="f16" shape="1, 1, 1, 1" offset="13065744" size="2"/>
			<output>
				<port id="0" precision="FP16" names="322">
					<dim>1</dim>
					<dim>1</dim>
					<dim>1</dim>
					<dim>1</dim>
				</port>
			</output>
		</layer>
		<layer id="307" name="Div_242" type="Multiply" version="opset1">
			<data auto_broadcast="numpy"/>
			<input>
				<port id="0" precision="FP16">
					<dim>1</dim>
					<dim>2</dim>
					<dim>128</dim>
					<dim>128</dim>
				</port>
				<port id="1" precision="FP16">
					<dim>1</dim>
					<dim>1</dim>
					<dim>1</dim>
					<dim>1</dim>
				</port>
			</input>
			<output>
				<port id="2" precision="FP16" names="323">
					<dim>1</dim>
					<dim>2</dim>
					<dim>128</dim>
					<dim>128</dim>
				</port>
			</output>
		</layer>
		<layer id="308" name="Add_243" type="Add" version="opset1">
			<data auto_broadcast="numpy"/>
			<input>
				<port id="0" precision="FP16">
					<dim>1</dim>
					<dim>2</dim>
					<dim>128</dim>
					<dim>128</dim>
				</port>
				<port id="1" precision="FP16">
					<dim>1</dim>
					<dim>1</dim>
					<dim>1</dim>
					<dim>128</dim>
				</port>
			</input>
			<output>
				<port id="2" precision="FP16" names="324">
					<dim>1</dim>
					<dim>2</dim>
					<dim>128</dim>
					<dim>128</dim>
				</port>
			</output>
		</layer>
		<layer id="309" name="Softmax_244/FlattenONNX_/input_shape" type="ShapeOf" version="opset3">
			<data output_type="i64"/>
			<input>
				<port id="0" precision="FP16">
					<dim>1</dim>
					<dim>2</dim>
					<dim>128</dim>
					<dim>128</dim>
				</port>
			</input>
			<output>
				<port id="1" precision="I64">
					<dim>4</dim>
				</port>
			</output>
		</layer>
		<layer id="310" name="Softmax_244/FlattenONNX_/input_shape/Indices" type="Const" version="opset1">
			<data element_type="i32" shape="3" offset="13065750" size="12"/>
			<output>
				<port id="0" precision="I32">
					<dim>3</dim>
				</port>
			</output>
		</layer>
		<layer id="311" name="Softmax_244/FlattenONNX_/input_shape/Axis" type="Const" version="opset1">
			<data element_type="i64" shape="" offset="12867840" size="8"/>
			<output>
				<port id="0" precision="I64"/>
			</output>
		</layer>
		<layer id="312" name="Softmax_244/FlattenONNX_/input_shape/Gather" type="Gather" version="opset7">
			<data batch_dims="0"/>
			<input>
				<port id="0" precision="I64">
					<dim>4</dim>
				</port>
				<port id="1" precision="I32">
					<dim>3</dim>
				</port>
				<port id="2" precision="I64"/>
			</input>
			<output>
				<port id="3" precision="I64">
					<dim>3</dim>
				</port>
			</output>
		</layer>
		<layer id="313" name="Softmax_244/FlattenONNX_/first_dims/value" type="Const" version="opset1">
			<data element_type="i64" shape="1" offset="12867840" size="8"/>
			<output>
				<port id="0" precision="I64">
					<dim>1</dim>
				</port>
			</output>
		</layer>
		<layer id="314" name="Softmax_244/FlattenONNX_/first_dims" type="ReduceProd" version="opset1">
			<data keep_dims="true"/>
			<input>
				<port id="0" precision="I64">
					<dim>3</dim>
				</port>
				<port id="1" precision="I64">
					<dim>1</dim>
				</port>
			</input>
			<output>
				<port id="2" precision="I64">
					<dim>1</dim>
				</port>
			</output>
		</layer>
		<layer id="315" name="Softmax_244/FlattenONNX_/second_dims" type="Const" version="opset1">
			<data element_type="i64" shape="1" offset="12868112" size="8"/>
			<output>
				<port id="0" precision="I64">
					<dim>1</dim>
				</port>
			</output>
		</layer>
		<layer id="316" name="Softmax_244/FlattenONNX_/first_dims/shapes_concat" type="Concat" version="opset1">
			<data axis="0"/>
			<input>
				<port id="0" precision="I64">
					<dim>1</dim>
				</port>
				<port id="1" precision="I64">
					<dim>1</dim>
				</port>
			</input>
			<output>
				<port id="2" precision="I64">
					<dim>2</dim>
				</port>
			</output>
		</layer>
		<layer id="317" name="Softmax_244/FlattenONNX_/Reshape" type="Reshape" version="opset1">
			<data special_zero="true"/>
			<input>
				<port id="0" precision="FP16">
					<dim>1</dim>
					<dim>2</dim>
					<dim>128</dim>
					<dim>128</dim>
				</port>
				<port id="1" precision="I64">
					<dim>2</dim>
				</port>
			</input>
			<output>
				<port id="2" precision="FP16">
					<dim>256</dim>
					<dim>128</dim>
				</port>
			</output>
		</layer>
		<layer id="318" name="Softmax_244/Softmax_" type="SoftMax" version="opset1">
			<data axis="1"/>
			<input>
				<port id="0" precision="FP16">
					<dim>256</dim>
					<dim>128</dim>
				</port>
			</input>
			<output>
				<port id="1" precision="FP16">
					<dim>256</dim>
					<dim>128</dim>
				</port>
			</output>
		</layer>
		<layer id="319" name="Softmax_244/ShapeOf_" type="ShapeOf" version="opset3">
			<data output_type="i64"/>
			<input>
				<port id="0" precision="FP16">
					<dim>1</dim>
					<dim>2</dim>
					<dim>128</dim>
					<dim>128</dim>
				</port>
			</input>
			<output>
				<port id="1" precision="I64">
					<dim>4</dim>
				</port>
			</output>
		</layer>
		<layer id="320" name="Softmax_244" type="Reshape" version="opset1">
			<data special_zero="true"/>
			<input>
				<port id="0" precision="FP16">
					<dim>256</dim>
					<dim>128</dim>
				</port>
				<port id="1" precision="I64">
					<dim>4</dim>
				</port>
			</input>
			<output>
				<port id="2" precision="FP16" names="325">
					<dim>1</dim>
					<dim>2</dim>
					<dim>128</dim>
					<dim>128</dim>
				</port>
			</output>
		</layer>
		<layer id="321" name="403" type="Const" version="opset1">
			<data element_type="f16" shape="128, 128" offset="13591466" size="32768"/>
			<output>
				<port id="0" precision="FP16" names="403">
					<dim>128</dim>
					<dim>128</dim>
				</port>
			</output>
		</layer>
		<layer id="322" name="MatMul_178" type="MatMul" version="opset1">
			<data transpose_a="false" transpose_b="true"/>
			<input>
				<port id="0" precision="FP16">
					<dim>1</dim>
					<dim>128</dim>
					<dim>128</dim>
				</port>
				<port id="1" precision="FP16">
					<dim>128</dim>
					<dim>128</dim>
				</port>
			</input>
			<output>
				<port id="2" precision="FP16" names="251">
					<dim>1</dim>
					<dim>128</dim>
					<dim>128</dim>
				</port>
			</output>
		</layer>
		<layer id="323" name="bert.encoder.layer.1.attention.self.value.bias" type="Const" version="opset1">
			<data element_type="f16" shape="1, 1, 128" offset="12868376" size="256"/>
			<output>
				<port id="0" precision="FP16" names="bert.encoder.layer.1.attention.self.value.bias">
					<dim>1</dim>
					<dim>1</dim>
					<dim>128</dim>
				</port>
			</output>
		</layer>
		<layer id="324" name="Add_179" type="Add" version="opset1">
			<data auto_broadcast="numpy"/>
			<input>
				<port id="0" precision="FP16">
					<dim>1</dim>
					<dim>128</dim>
					<dim>128</dim>
				</port>
				<port id="1" precision="FP16">
					<dim>1</dim>
					<dim>1</dim>
					<dim>128</dim>
				</port>
			</input>
			<output>
				<port id="2" precision="FP16" names="252">
					<dim>1</dim>
					<dim>128</dim>
					<dim>128</dim>
				</port>
			</output>
		</layer>
		<layer id="325" name="Shape_180" type="ShapeOf" version="opset3">
			<data output_type="i64"/>
			<input>
				<port id="0" precision="FP16">
					<dim>1</dim>
					<dim>128</dim>
					<dim>128</dim>
				</port>
			</input>
			<output>
				<port id="1" precision="I64" names="253">
					<dim>3</dim>
				</port>
			</output>
		</layer>
		<layer id="326" name="Constant_181" type="Const" version="opset1">
			<data element_type="i32" shape="" offset="12868104" size="4"/>
			<output>
				<port id="0" precision="I32" names="254"/>
			</output>
		</layer>
		<layer id="327" name="Gather_182/axis" type="Const" version="opset1">
			<data element_type="i64" shape="" offset="12867840" size="8"/>
			<output>
				<port id="0" precision="I64"/>
			</output>
		</layer>
		<layer id="328" name="Gather_182549" type="Gather" version="opset7">
			<data batch_dims="0"/>
			<input>
				<port id="0" precision="I64">
					<dim>3</dim>
				</port>
				<port id="1" precision="I32"/>
				<port id="2" precision="I64"/>
			</input>
			<output>
				<port id="3" precision="I64" names="255"/>
			</output>
		</layer>
		<layer id="329" name="Unsqueeze_186/Dims" type="Const" version="opset1">
			<data element_type="i64" shape="1" offset="12867840" size="8"/>
			<output>
				<port id="0" precision="I64">
					<dim>1</dim>
				</port>
			</output>
		</layer>
		<layer id="330" name="Unsqueeze_186/Unsqueeze" type="Unsqueeze" version="opset1">
			<input>
				<port id="0" precision="I64"/>
				<port id="1" precision="I64">
					<dim>1</dim>
				</port>
			</input>
			<output>
				<port id="2" precision="I64" names="261">
					<dim>1</dim>
				</port>
			</output>
		</layer>
		<layer id="331" name="Shape_183" type="ShapeOf" version="opset3">
			<data output_type="i64"/>
			<input>
				<port id="0" precision="FP16">
					<dim>1</dim>
					<dim>128</dim>
					<dim>128</dim>
				</port>
			</input>
			<output>
				<port id="1" precision="I64" names="256">
					<dim>3</dim>
				</port>
			</output>
		</layer>
		<layer id="332" name="Constant_184" type="Const" version="opset1">
			<data element_type="i32" shape="" offset="12868108" size="4"/>
			<output>
				<port id="0" precision="I32" names="257"/>
			</output>
		</layer>
		<layer id="333" name="Gather_185/axis" type="Const" version="opset1">
			<data element_type="i64" shape="" offset="12867840" size="8"/>
			<output>
				<port id="0" precision="I64"/>
			</output>
		</layer>
		<layer id="334" name="Gather_185557" type="Gather" version="opset7">
			<data batch_dims="0"/>
			<input>
				<port id="0" precision="I64">
					<dim>3</dim>
				</port>
				<port id="1" precision="I32"/>
				<port id="2" precision="I64"/>
			</input>
			<output>
				<port id="3" precision="I64" names="258"/>
			</output>
		</layer>
		<layer id="335" name="Unsqueeze_187/Dims" type="Const" version="opset1">
			<data element_type="i64" shape="1" offset="12867840" size="8"/>
			<output>
				<port id="0" precision="I64">
					<dim>1</dim>
				</port>
			</output>
		</layer>
		<layer id="336" name="Unsqueeze_187/Unsqueeze" type="Unsqueeze" version="opset1">
			<input>
				<port id="0" precision="I64"/>
				<port id="1" precision="I64">
					<dim>1</dim>
				</port>
			</input>
			<output>
				<port id="2" precision="I64" names="262">
					<dim>1</dim>
				</port>
			</output>
		</layer>
		<layer id="337" name="404" type="Const" version="opset1">
			<data element_type="i64" shape="1" offset="12901400" size="8"/>
			<output>
				<port id="0" precision="I64" names="404">
					<dim>1</dim>
				</port>
			</output>
		</layer>
		<layer id="338" name="405" type="Const" version="opset1">
			<data element_type="i64" shape="1" offset="12901408" size="8"/>
			<output>
				<port id="0" precision="I64" names="405">
					<dim>1</dim>
				</port>
			</output>
		</layer>
		<layer id="339" name="Concat_188" type="Concat" version="opset1">
			<data axis="0"/>
			<input>
				<port id="0" precision="I64">
					<dim>1</dim>
				</port>
				<port id="1" precision="I64">
					<dim>1</dim>
				</port>
				<port id="2" precision="I64">
					<dim>1</dim>
				</port>
				<port id="3" precision="I64">
					<dim>1</dim>
				</port>
			</input>
			<output>
				<port id="4" precision="I64" names="265">
					<dim>4</dim>
				</port>
			</output>
		</layer>
		<layer id="340" name="Reshape_189" type="Reshape" version="opset1">
			<data special_zero="true"/>
			<input>
				<port id="0" precision="FP16">
					<dim>1</dim>
					<dim>128</dim>
					<dim>128</dim>
				</port>
				<port id="1" precision="I64">
					<dim>4</dim>
				</port>
			</input>
			<output>
				<port id="2" precision="FP16" names="266">
					<dim>1</dim>
					<dim>128</dim>
					<dim>2</dim>
					<dim>64</dim>
				</port>
			</output>
		</layer>
		<layer id="341" name="363" type="Const" version="opset1">
			<data element_type="i64" shape="4" offset="12901416" size="32"/>
			<output>
				<port id="0" precision="I64">
					<dim>4</dim>
				</port>
			</output>
		</layer>
		<layer id="342" name="Transpose_190" type="Transpose" version="opset1">
			<input>
				<port id="0" precision="FP16">
					<dim>1</dim>
					<dim>128</dim>
					<dim>2</dim>
					<dim>64</dim>
				</port>
				<port id="1" precision="I64">
					<dim>4</dim>
				</port>
			</input>
			<output>
				<port id="2" precision="FP16" names="267">
					<dim>1</dim>
					<dim>2</dim>
					<dim>128</dim>
					<dim>64</dim>
				</port>
			</output>
		</layer>
		<layer id="343" name="MatMul_245" type="MatMul" version="opset1">
			<data transpose_a="false" transpose_b="false"/>
			<input>
				<port id="0" precision="FP16">
					<dim>1</dim>
					<dim>2</dim>
					<dim>128</dim>
					<dim>128</dim>
				</port>
				<port id="1" precision="FP16">
					<dim>1</dim>
					<dim>2</dim>
					<dim>128</dim>
					<dim>64</dim>
				</port>
			</input>
			<output>
				<port id="2" precision="FP16" names="326">
					<dim>1</dim>
					<dim>2</dim>
					<dim>128</dim>
					<dim>64</dim>
				</port>
			</output>
		</layer>
		<layer id="344" name="361" type="Const" version="opset1">
			<data element_type="i64" shape="4" offset="12901416" size="32"/>
			<output>
				<port id="0" precision="I64">
					<dim>4</dim>
				</port>
			</output>
		</layer>
		<layer id="345" name="Transpose_246" type="Transpose" version="opset1">
			<input>
				<port id="0" precision="FP16">
					<dim>1</dim>
					<dim>2</dim>
					<dim>128</dim>
					<dim>64</dim>
				</port>
				<port id="1" precision="I64">
					<dim>4</dim>
				</port>
			</input>
			<output>
				<port id="2" precision="FP16" names="327">
					<dim>1</dim>
					<dim>128</dim>
					<dim>2</dim>
					<dim>64</dim>
				</port>
			</output>
		</layer>
		<layer id="346" name="Shape_247" type="ShapeOf" version="opset3">
			<data output_type="i64"/>
			<input>
				<port id="0" precision="FP16">
					<dim>1</dim>
					<dim>128</dim>
					<dim>2</dim>
					<dim>64</dim>
				</port>
			</input>
			<output>
				<port id="1" precision="I64" names="328">
					<dim>4</dim>
				</port>
			</output>
		</layer>
		<layer id="347" name="Constant_248" type="Const" version="opset1">
			<data element_type="i32" shape="" offset="12868104" size="4"/>
			<output>
				<port id="0" precision="I32" names="329"/>
			</output>
		</layer>
		<layer id="348" name="Gather_249/axis" type="Const" version="opset1">
			<data element_type="i64" shape="" offset="12867840" size="8"/>
			<output>
				<port id="0" precision="I64"/>
			</output>
		</layer>
		<layer id="349" name="Gather_249519" type="Gather" version="opset7">
			<data batch_dims="0"/>
			<input>
				<port id="0" precision="I64">
					<dim>4</dim>
				</port>
				<port id="1" precision="I32"/>
				<port id="2" precision="I64"/>
			</input>
			<output>
				<port id="3" precision="I64" names="330"/>
			</output>
		</layer>
		<layer id="350" name="Unsqueeze_253/Dims" type="Const" version="opset1">
			<data element_type="i64" shape="1" offset="12867840" size="8"/>
			<output>
				<port id="0" precision="I64">
					<dim>1</dim>
				</port>
			</output>
		</layer>
		<layer id="351" name="Unsqueeze_253/Unsqueeze" type="Unsqueeze" version="opset1">
			<input>
				<port id="0" precision="I64"/>
				<port id="1" precision="I64">
					<dim>1</dim>
				</port>
			</input>
			<output>
				<port id="2" precision="I64" names="335">
					<dim>1</dim>
				</port>
			</output>
		</layer>
		<layer id="352" name="Shape_250" type="ShapeOf" version="opset3">
			<data output_type="i64"/>
			<input>
				<port id="0" precision="FP16">
					<dim>1</dim>
					<dim>128</dim>
					<dim>2</dim>
					<dim>64</dim>
				</port>
			</input>
			<output>
				<port id="1" precision="I64" names="331">
					<dim>4</dim>
				</port>
			</output>
		</layer>
		<layer id="353" name="Constant_251" type="Const" version="opset1">
			<data element_type="i32" shape="" offset="12868108" size="4"/>
			<output>
				<port id="0" precision="I32" names="332"/>
			</output>
		</layer>
		<layer id="354" name="Gather_252/axis" type="Const" version="opset1">
			<data element_type="i64" shape="" offset="12867840" size="8"/>
			<output>
				<port id="0" precision="I64"/>
			</output>
		</layer>
		<layer id="355" name="Gather_252523" type="Gather" version="opset7">
			<data batch_dims="0"/>
			<input>
				<port id="0" precision="I64">
					<dim>4</dim>
				</port>
				<port id="1" precision="I32"/>
				<port id="2" precision="I64"/>
			</input>
			<output>
				<port id="3" precision="I64" names="333"/>
			</output>
		</layer>
		<layer id="356" name="Unsqueeze_254/Dims" type="Const" version="opset1">
			<data element_type="i64" shape="1" offset="12867840" size="8"/>
			<output>
				<port id="0" precision="I64">
					<dim>1</dim>
				</port>
			</output>
		</layer>
		<layer id="357" name="Unsqueeze_254/Unsqueeze" type="Unsqueeze" version="opset1">
			<input>
				<port id="0" precision="I64"/>
				<port id="1" precision="I64">
					<dim>1</dim>
				</port>
			</input>
			<output>
				<port id="2" precision="I64" names="336">
					<dim>1</dim>
				</port>
			</output>
		</layer>
		<layer id="358" name="408" type="Const" version="opset1">
			<data element_type="i64" shape="1" offset="13098530" size="8"/>
			<output>
				<port id="0" precision="I64" names="408">
					<dim>1</dim>
				</port>
			</output>
		</layer>
		<layer id="359" name="Concat_255" type="Concat" version="opset1">
			<data axis="0"/>
			<input>
				<port id="0" precision="I64">
					<dim>1</dim>
				</port>
				<port id="1" precision="I64">
					<dim>1</dim>
				</port>
				<port id="2" precision="I64">
					<dim>1</dim>
				</port>
			</input>
			<output>
				<port id="3" precision="I64" names="338">
					<dim>3</dim>
				</port>
			</output>
		</layer>
		<layer id="360" name="Reshape_256" type="Reshape" version="opset1">
			<data special_zero="true"/>
			<input>
				<port id="0" precision="FP16">
					<dim>1</dim>
					<dim>128</dim>
					<dim>2</dim>
					<dim>64</dim>
				</port>
				<port id="1" precision="I64">
					<dim>3</dim>
				</port>
			</input>
			<output>
				<port id="2" precision="FP16" names="339">
					<dim>1</dim>
					<dim>128</dim>
					<dim>128</dim>
				</port>
			</output>
		</layer>
		<layer id="361" name="409" type="Const" version="opset1">
			<data element_type="f16" shape="128, 128" offset="13624234" size="32768"/>
			<output>
				<port id="0" precision="FP16" names="409">
					<dim>128</dim>
					<dim>128</dim>
				</port>
			</output>
		</layer>
		<layer id="362" name="MatMul_257" type="MatMul" version="opset1">
			<data transpose_a="false" transpose_b="true"/>
			<input>
				<port id="0" precision="FP16">
					<dim>1</dim>
					<dim>128</dim>
					<dim>128</dim>
				</port>
				<port id="1" precision="FP16">
					<dim>128</dim>
					<dim>128</dim>
				</port>
			</input>
			<output>
				<port id="2" precision="FP16" names="341">
					<dim>1</dim>
					<dim>128</dim>
					<dim>128</dim>
				</port>
			</output>
		</layer>
		<layer id="363" name="bert.encoder.layer.1.attention.output.dense.bias" type="Const" version="opset1">
			<data element_type="f16" shape="1, 1, 128" offset="12868376" size="256"/>
			<output>
				<port id="0" precision="FP16" names="bert.encoder.layer.1.attention.output.dense.bias">
					<dim>1</dim>
					<dim>1</dim>
					<dim>128</dim>
				</port>
			</output>
		</layer>
		<layer id="364" name="Add_258" type="Add" version="opset1">
			<data auto_broadcast="numpy"/>
			<input>
				<port id="0" precision="FP16">
					<dim>1</dim>
					<dim>128</dim>
					<dim>128</dim>
				</port>
				<port id="1" precision="FP16">
					<dim>1</dim>
					<dim>1</dim>
					<dim>128</dim>
				</port>
			</input>
			<output>
				<port id="2" precision="FP16" names="342">
					<dim>1</dim>
					<dim>128</dim>
					<dim>128</dim>
				</port>
			</output>
		</layer>
		<layer id="365" name="Add_259" type="Add" version="opset1">
			<data auto_broadcast="numpy"/>
			<input>
				<port id="0" precision="FP16">
					<dim>1</dim>
					<dim>128</dim>
					<dim>128</dim>
				</port>
				<port id="1" precision="FP16">
					<dim>1</dim>
					<dim>128</dim>
					<dim>128</dim>
				</port>
			</input>
			<output>
				<port id="2" precision="FP16" names="343">
					<dim>1</dim>
					<dim>128</dim>
					<dim>128</dim>
				</port>
			</output>
		</layer>
		<layer id="366" name="474_input_port_1/value" type="Const" version="opset1">
			<data element_type="i64" shape="1" offset="12868112" size="8"/>
			<output>
				<port id="0" precision="I64">
					<dim>1</dim>
				</port>
			</output>
		</layer>
		<layer id="367" name="Div_268" type="MVN" version="opset6">
			<data eps="9.999999960041972e-13" normalize_variance="true" eps_mode="INSIDE_SQRT"/>
			<input>
				<port id="0" precision="FP16">
					<dim>1</dim>
					<dim>128</dim>
					<dim>128</dim>
				</port>
				<port id="1" precision="I64">
					<dim>1</dim>
				</port>
			</input>
			<output>
				<port id="2" precision="FP16" names="352">
					<dim>1</dim>
					<dim>128</dim>
					<dim>128</dim>
				</port>
			</output>
		</layer>
		<layer id="368" name="bert.encoder.layer.1.attention.output.LayerNorm.weight" type="Const" version="opset1">
			<data element_type="f16" shape="1, 1, 128" offset="12868120" size="256"/>
			<output>
				<port id="0" precision="FP16" names="bert.encoder.layer.1.attention.output.LayerNorm.weight">
					<dim>1</dim>
					<dim>1</dim>
					<dim>128</dim>
				</port>
			</output>
		</layer>
		<layer id="369" name="Mul_269" type="Multiply" version="opset1">
			<data auto_broadcast="numpy"/>
			<input>
				<port id="0" precision="FP16">
					<dim>1</dim>
					<dim>128</dim>
					<dim>128</dim>
				</port>
				<port id="1" precision="FP16">
					<dim>1</dim>
					<dim>1</dim>
					<dim>128</dim>
				</port>
			</input>
			<output>
				<port id="2" precision="FP16" names="353">
					<dim>1</dim>
					<dim>128</dim>
					<dim>128</dim>
				</port>
			</output>
		</layer>
		<layer id="370" name="bert.encoder.layer.1.attention.output.LayerNorm.bias" type="Const" version="opset1">
			<data element_type="f16" shape="1, 1, 128" offset="12868376" size="256"/>
			<output>
				<port id="0" precision="FP16" names="bert.encoder.layer.1.attention.output.LayerNorm.bias">
					<dim>1</dim>
					<dim>1</dim>
					<dim>128</dim>
				</port>
			</output>
		</layer>
		<layer id="371" name="Add_270" type="Add" version="opset1">
			<data auto_broadcast="numpy"/>
			<input>
				<port id="0" precision="FP16">
					<dim>1</dim>
					<dim>128</dim>
					<dim>128</dim>
				</port>
				<port id="1" precision="FP16">
					<dim>1</dim>
					<dim>1</dim>
					<dim>128</dim>
				</port>
			</input>
			<output>
				<port id="2" precision="FP16" names="354">
					<dim>1</dim>
					<dim>128</dim>
					<dim>128</dim>
				</port>
			</output>
		</layer>
		<layer id="372" name="410" type="Const" version="opset1">
			<data element_type="f16" shape="512, 128" offset="13657002" size="131072"/>
			<output>
				<port id="0" precision="FP16" names="410">
					<dim>512</dim>
					<dim>128</dim>
				</port>
			</output>
		</layer>
		<layer id="373" name="MatMul_271" type="MatMul" version="opset1">
			<data transpose_a="false" transpose_b="true"/>
			<input>
				<port id="0" precision="FP16">
					<dim>1</dim>
					<dim>128</dim>
					<dim>128</dim>
				</port>
				<port id="1" precision="FP16">
					<dim>512</dim>
					<dim>128</dim>
				</port>
			</input>
			<output>
				<port id="2" precision="FP16" names="356">
					<dim>1</dim>
					<dim>128</dim>
					<dim>512</dim>
				</port>
			</output>
		</layer>
		<layer id="374" name="bert.encoder.layer.1.intermediate.dense.bias" type="Const" version="opset1">
			<data element_type="f16" shape="1, 1, 512" offset="13262378" size="1024"/>
			<output>
				<port id="0" precision="FP16" names="bert.encoder.layer.1.intermediate.dense.bias">
					<dim>1</dim>
					<dim>1</dim>
					<dim>512</dim>
				</port>
			</output>
		</layer>
		<layer id="375" name="Add_272" type="Add" version="opset1">
			<data auto_broadcast="numpy"/>
			<input>
				<port id="0" precision="FP16">
					<dim>1</dim>
					<dim>128</dim>
					<dim>512</dim>
				</port>
				<port id="1" precision="FP16">
					<dim>1</dim>
					<dim>1</dim>
					<dim>512</dim>
				</port>
			</input>
			<output>
				<port id="2" precision="FP16" names="357">
					<dim>1</dim>
					<dim>128</dim>
					<dim>512</dim>
				</port>
			</output>
		</layer>
		<layer id="376" name="Mul_280" type="Gelu" version="opset7">
			<data approximation_mode="ERF"/>
			<input>
				<port id="0" precision="FP16">
					<dim>1</dim>
					<dim>128</dim>
					<dim>512</dim>
				</port>
			</input>
			<output>
				<port id="1" precision="FP16" names="365">
					<dim>1</dim>
					<dim>128</dim>
					<dim>512</dim>
				</port>
			</output>
		</layer>
		<layer id="377" name="411" type="Const" version="opset1">
			<data element_type="f16" shape="128, 512" offset="13788074" size="131072"/>
			<output>
				<port id="0" precision="FP16" names="411">
					<dim>128</dim>
					<dim>512</dim>
				</port>
			</output>
		</layer>
		<layer id="378" name="MatMul_281" type="MatMul" version="opset1">
			<data transpose_a="false" transpose_b="true"/>
			<input>
				<port id="0" precision="FP16">
					<dim>1</dim>
					<dim>128</dim>
					<dim>512</dim>
				</port>
				<port id="1" precision="FP16">
					<dim>128</dim>
					<dim>512</dim>
				</port>
			</input>
			<output>
				<port id="2" precision="FP16" names="367">
					<dim>1</dim>
					<dim>128</dim>
					<dim>128</dim>
				</port>
			</output>
		</layer>
		<layer id="379" name="bert.encoder.layer.1.output.dense.bias" type="Const" version="opset1">
			<data element_type="f16" shape="1, 1, 128" offset="12868376" size="256"/>
			<output>
				<port id="0" precision="FP16" names="bert.encoder.layer.1.output.dense.bias">
					<dim>1</dim>
					<dim>1</dim>
					<dim>128</dim>
				</port>
			</output>
		</layer>
		<layer id="380" name="Add_282" type="Add" version="opset1">
			<data auto_broadcast="numpy"/>
			<input>
				<port id="0" precision="FP16">
					<dim>1</dim>
					<dim>128</dim>
					<dim>128</dim>
				</port>
				<port id="1" precision="FP16">
					<dim>1</dim>
					<dim>1</dim>
					<dim>128</dim>
				</port>
			</input>
			<output>
				<port id="2" precision="FP16" names="368">
					<dim>1</dim>
					<dim>128</dim>
					<dim>128</dim>
				</port>
			</output>
		</layer>
		<layer id="381" name="Add_283" type="Add" version="opset1">
			<data auto_broadcast="numpy"/>
			<input>
				<port id="0" precision="FP16">
					<dim>1</dim>
					<dim>128</dim>
					<dim>128</dim>
				</port>
				<port id="1" precision="FP16">
					<dim>1</dim>
					<dim>128</dim>
					<dim>128</dim>
				</port>
			</input>
			<output>
				<port id="2" precision="FP16" names="369">
					<dim>1</dim>
					<dim>128</dim>
					<dim>128</dim>
				</port>
			</output>
		</layer>
		<layer id="382" name="476_input_port_1/value" type="Const" version="opset1">
			<data element_type="i64" shape="1" offset="12868112" size="8"/>
			<output>
				<port id="0" precision="I64">
					<dim>1</dim>
				</port>
			</output>
		</layer>
		<layer id="383" name="Div_292" type="MVN" version="opset6">
			<data eps="9.999999960041972e-13" normalize_variance="true" eps_mode="INSIDE_SQRT"/>
			<input>
				<port id="0" precision="FP16">
					<dim>1</dim>
					<dim>128</dim>
					<dim>128</dim>
				</port>
				<port id="1" precision="I64">
					<dim>1</dim>
				</port>
			</input>
			<output>
				<port id="2" precision="FP16" names="378">
					<dim>1</dim>
					<dim>128</dim>
					<dim>128</dim>
				</port>
			</output>
		</layer>
		<layer id="384" name="bert.encoder.layer.1.output.LayerNorm.weight" type="Const" version="opset1">
			<data element_type="f16" shape="1, 1, 128" offset="12868120" size="256"/>
			<output>
				<port id="0" precision="FP16" names="bert.encoder.layer.1.output.LayerNorm.weight">
					<dim>1</dim>
					<dim>1</dim>
					<dim>128</dim>
				</port>
			</output>
		</layer>
		<layer id="385" name="Mul_293" type="Multiply" version="opset1">
			<data auto_broadcast="numpy"/>
			<input>
				<port id="0" precision="FP16">
					<dim>1</dim>
					<dim>128</dim>
					<dim>128</dim>
				</port>
				<port id="1" precision="FP16">
					<dim>1</dim>
					<dim>1</dim>
					<dim>128</dim>
				</port>
			</input>
			<output>
				<port id="2" precision="FP16" names="379">
					<dim>1</dim>
					<dim>128</dim>
					<dim>128</dim>
				</port>
			</output>
		</layer>
		<layer id="386" name="bert.encoder.layer.1.output.LayerNorm.bias" type="Const" version="opset1">
			<data element_type="f16" shape="1, 1, 128" offset="12868376" size="256"/>
			<output>
				<port id="0" precision="FP16" names="bert.encoder.layer.1.output.LayerNorm.bias">
					<dim>1</dim>
					<dim>1</dim>
					<dim>128</dim>
				</port>
			</output>
		</layer>
		<layer id="387" name="Add_294" type="Add" version="opset1">
			<data auto_broadcast="numpy"/>
			<input>
				<port id="0" precision="FP16">
					<dim>1</dim>
					<dim>128</dim>
					<dim>128</dim>
				</port>
				<port id="1" precision="FP16">
					<dim>1</dim>
					<dim>1</dim>
					<dim>128</dim>
				</port>
			</input>
			<output>
				<port id="2" precision="FP16" names="380">
					<dim>1</dim>
					<dim>128</dim>
					<dim>128</dim>
				</port>
			</output>
		</layer>
		<layer id="388" name="Constant_295" type="Const" version="opset1">
			<data element_type="i32" shape="" offset="12868104" size="4"/>
			<output>
				<port id="0" precision="I32" names="381"/>
			</output>
		</layer>
		<layer id="389" name="Gather_296/axis" type="Const" version="opset1">
			<data element_type="i64" shape="" offset="12901448" size="8"/>
			<output>
				<port id="0" precision="I64"/>
			</output>
		</layer>
		<layer id="390" name="Gather_296571" type="Gather" version="opset7">
			<data batch_dims="0"/>
			<input>
				<port id="0" precision="FP16">
					<dim>1</dim>
					<dim>128</dim>
					<dim>128</dim>
				</port>
				<port id="1" precision="I32"/>
				<port id="2" precision="I64"/>
			</input>
			<output>
				<port id="3" precision="FP16" names="382">
					<dim>1</dim>
					<dim>128</dim>
				</port>
			</output>
		</layer>
		<layer id="391" name="bert.pooler.dense.weight" type="Const" version="opset1">
			<data element_type="f16" shape="128, 128" offset="13919146" size="32768"/>
			<output>
				<port id="0" precision="FP16" names="bert.pooler.dense.weight">
					<dim>128</dim>
					<dim>128</dim>
				</port>
			</output>
		</layer>
		<layer id="392" name="Gemm_297/WithoutBiases" type="MatMul" version="opset1">
			<data transpose_a="false" transpose_b="true"/>
			<input>
				<port id="0" precision="FP16">
					<dim>1</dim>
					<dim>128</dim>
				</port>
				<port id="1" precision="FP16">
					<dim>128</dim>
					<dim>128</dim>
				</port>
			</input>
			<output>
				<port id="2" precision="FP16">
					<dim>1</dim>
					<dim>128</dim>
				</port>
			</output>
		</layer>
		<layer id="393" name="bert.pooler.dense.bias" type="Const" version="opset1">
			<data element_type="f16" shape="1, 128" offset="12868376" size="256"/>
			<output>
				<port id="0" precision="FP16" names="bert.pooler.dense.bias">
					<dim>1</dim>
					<dim>128</dim>
				</port>
			</output>
		</layer>
		<layer id="394" name="Gemm_297" type="Add" version="opset1">
			<data auto_broadcast="numpy"/>
			<input>
				<port id="0" precision="FP16">
					<dim>1</dim>
					<dim>128</dim>
				</port>
				<port id="1" precision="FP16">
					<dim>1</dim>
					<dim>128</dim>
				</port>
			</input>
			<output>
				<port id="2" precision="FP16" names="383">
					<dim>1</dim>
					<dim>128</dim>
				</port>
			</output>
		</layer>
		<layer id="395" name="Tanh_298" type="Tanh" version="opset1">
			<input>
				<port id="0" precision="FP16">
					<dim>1</dim>
					<dim>128</dim>
				</port>
			</input>
			<output>
				<port id="1" precision="FP16" names="384">
					<dim>1</dim>
					<dim>128</dim>
				</port>
			</output>
		</layer>
		<layer id="396" name="classifier.weight" type="Const" version="opset1">
			<data element_type="f16" shape="2, 128" offset="13951914" size="512"/>
			<output>
				<port id="0" precision="FP16" names="classifier.weight">
					<dim>2</dim>
					<dim>128</dim>
				</port>
			</output>
		</layer>
		<layer id="397" name="Gemm_299/WithoutBiases" type="MatMul" version="opset1">
			<data transpose_a="false" transpose_b="true"/>
			<input>
				<port id="0" precision="FP16">
					<dim>1</dim>
					<dim>128</dim>
				</port>
				<port id="1" precision="FP16">
					<dim>2</dim>
					<dim>128</dim>
				</port>
			</input>
			<output>
				<port id="2" precision="FP16">
					<dim>1</dim>
					<dim>2</dim>
				</port>
			</output>
		</layer>
		<layer id="398" name="classifier.bias" type="Const" version="opset1">
			<data element_type="f16" shape="1, 2" offset="12868104" size="4"/>
			<output>
				<port id="0" precision="FP16" names="classifier.bias">
					<dim>1</dim>
					<dim>2</dim>
				</port>
			</output>
		</layer>
		<layer id="399" name="output_0" type="Add" version="opset1">
			<data auto_broadcast="numpy"/>
			<input>
				<port id="0" precision="FP16">
					<dim>1</dim>
					<dim>2</dim>
				</port>
				<port id="1" precision="FP16">
					<dim>1</dim>
					<dim>2</dim>
				</port>
			</input>
			<output>
				<port id="2" precision="FP16" names="output_0">
					<dim>1</dim>
					<dim>2</dim>
				</port>
			</output>
		</layer>
		<layer id="400" name="output_0/sink_port_0" type="Result" version="opset1">
			<input>
				<port id="0" precision="FP16">
					<dim>1</dim>
					<dim>2</dim>
				</port>
			</input>
		</layer>
	</layers>
	<edges>
		<edge from-layer="0" from-port="0" to-layer="126" to-port="0"/>
		<edge from-layer="1" from-port="0" to-layer="4" to-port="1"/>
		<edge from-layer="1" from-port="0" to-layer="7" to-port="0"/>
		<edge from-layer="1" from-port="0" to-layer="13" to-port="0"/>
		<edge from-layer="2" from-port="0" to-layer="4" to-port="0"/>
		<edge from-layer="3" from-port="0" to-layer="4" to-port="2"/>
		<edge from-layer="4" from-port="3" to-layer="24" to-port="0"/>
		<edge from-layer="5" from-port="0" to-layer="23" to-port="0"/>
		<edge from-layer="6" from-port="0" to-layer="20" to-port="0"/>
		<edge from-layer="7" from-port="1" to-layer="10" to-port="0"/>
		<edge from-layer="8" from-port="0" to-layer="10" to-port="1"/>
		<edge from-layer="9" from-port="0" to-layer="10" to-port="2"/>
		<edge from-layer="10" from-port="3" to-layer="12" to-port="0"/>
		<edge from-layer="11" from-port="0" to-layer="12" to-port="1"/>
		<edge from-layer="12" from-port="2" to-layer="19" to-port="0"/>
		<edge from-layer="13" from-port="1" to-layer="16" to-port="0"/>
		<edge from-layer="14" from-port="0" to-layer="16" to-port="1"/>
		<edge from-layer="15" from-port="0" to-layer="16" to-port="2"/>
		<edge from-layer="16" from-port="3" to-layer="18" to-port="0"/>
		<edge from-layer="17" from-port="0" to-layer="18" to-port="1"/>
		<edge from-layer="18" from-port="2" to-layer="19" to-port="1"/>
		<edge from-layer="19" from-port="2" to-layer="20" to-port="1"/>
		<edge from-layer="20" from-port="2" to-layer="21" to-port="0"/>
		<edge from-layer="21" from-port="1" to-layer="23" to-port="1"/>
		<edge from-layer="22" from-port="0" to-layer="23" to-port="2"/>
		<edge from-layer="23" from-port="3" to-layer="24" to-port="1"/>
		<edge from-layer="24" from-port="2" to-layer="26" to-port="0"/>
		<edge from-layer="25" from-port="0" to-layer="26" to-port="1"/>
		<edge from-layer="26" from-port="2" to-layer="28" to-port="0"/>
		<edge from-layer="27" from-port="0" to-layer="28" to-port="1"/>
		<edge from-layer="28" from-port="2" to-layer="30" to-port="0"/>
		<edge from-layer="29" from-port="0" to-layer="30" to-port="1"/>
		<edge from-layer="30" from-port="2" to-layer="32" to-port="0"/>
		<edge from-layer="30" from-port="2" to-layer="100" to-port="0"/>
		<edge from-layer="30" from-port="2" to-layer="191" to-port="1"/>
		<edge from-layer="30" from-port="2" to-layer="148" to-port="0"/>
		<edge from-layer="30" from-port="2" to-layer="57" to-port="0"/>
		<edge from-layer="31" from-port="0" to-layer="32" to-port="1"/>
		<edge from-layer="32" from-port="2" to-layer="34" to-port="0"/>
		<edge from-layer="33" from-port="0" to-layer="34" to-port="1"/>
		<edge from-layer="34" from-port="2" to-layer="41" to-port="0"/>
		<edge from-layer="34" from-port="2" to-layer="35" to-port="0"/>
		<edge from-layer="34" from-port="2" to-layer="50" to-port="0"/>
		<edge from-layer="35" from-port="1" to-layer="38" to-port="0"/>
		<edge from-layer="36" from-port="0" to-layer="38" to-port="1"/>
		<edge from-layer="37" from-port="0" to-layer="38" to-port="2"/>
		<edge from-layer="38" from-port="3" to-layer="40" to-port="0"/>
		<edge from-layer="39" from-port="0" to-layer="40" to-port="1"/>
		<edge from-layer="40" from-port="2" to-layer="49" to-port="0"/>
		<edge from-layer="41" from-port="1" to-layer="44" to-port="0"/>
		<edge from-layer="42" from-port="0" to-layer="44" to-port="1"/>
		<edge from-layer="43" from-port="0" to-layer="44" to-port="2"/>
		<edge from-layer="44" from-port="3" to-layer="46" to-port="0"/>
		<edge from-layer="45" from-port="0" to-layer="46" to-port="1"/>
		<edge from-layer="46" from-port="2" to-layer="49" to-port="1"/>
		<edge from-layer="47" from-port="0" to-layer="49" to-port="2"/>
		<edge from-layer="48" from-port="0" to-layer="49" to-port="3"/>
		<edge from-layer="49" from-port="4" to-layer="50" to-port="1"/>
		<edge from-layer="50" from-port="2" to-layer="52" to-port="0"/>
		<edge from-layer="51" from-port="0" to-layer="52" to-port="1"/>
		<edge from-layer="52" from-port="2" to-layer="121" to-port="0"/>
		<edge from-layer="52" from-port="2" to-layer="55" to-port="0"/>
		<edge from-layer="52" from-port="2" to-layer="88" to-port="0"/>
		<edge from-layer="53" from-port="0" to-layer="55" to-port="1"/>
		<edge from-layer="54" from-port="0" to-layer="55" to-port="2"/>
		<edge from-layer="55" from-port="3" to-layer="83" to-port="0"/>
		<edge from-layer="56" from-port="0" to-layer="57" to-port="1"/>
		<edge from-layer="57" from-port="2" to-layer="59" to-port="0"/>
		<edge from-layer="58" from-port="0" to-layer="59" to-port="1"/>
		<edge from-layer="59" from-port="2" to-layer="66" to-port="0"/>
		<edge from-layer="59" from-port="2" to-layer="60" to-port="0"/>
		<edge from-layer="59" from-port="2" to-layer="75" to-port="0"/>
		<edge from-layer="60" from-port="1" to-layer="63" to-port="0"/>
		<edge from-layer="61" from-port="0" to-layer="63" to-port="1"/>
		<edge from-layer="62" from-port="0" to-layer="63" to-port="2"/>
		<edge from-layer="63" from-port="3" to-layer="65" to-port="0"/>
		<edge from-layer="64" from-port="0" to-layer="65" to-port="1"/>
		<edge from-layer="65" from-port="2" to-layer="74" to-port="0"/>
		<edge from-layer="66" from-port="1" to-layer="69" to-port="0"/>
		<edge from-layer="67" from-port="0" to-layer="69" to-port="1"/>
		<edge from-layer="68" from-port="0" to-layer="69" to-port="2"/>
		<edge from-layer="69" from-port="3" to-layer="71" to-port="0"/>
		<edge from-layer="70" from-port="0" to-layer="71" to-port="1"/>
		<edge from-layer="71" from-port="2" to-layer="74" to-port="1"/>
		<edge from-layer="72" from-port="0" to-layer="74" to-port="2"/>
		<edge from-layer="73" from-port="0" to-layer="74" to-port="3"/>
		<edge from-layer="74" from-port="4" to-layer="75" to-port="1"/>
		<edge from-layer="75" from-port="2" to-layer="77" to-port="0"/>
		<edge from-layer="76" from-port="0" to-layer="77" to-port="1"/>
		<edge from-layer="77" from-port="2" to-layer="80" to-port="0"/>
		<edge from-layer="77" from-port="2" to-layer="91" to-port="0"/>
		<edge from-layer="78" from-port="0" to-layer="80" to-port="1"/>
		<edge from-layer="79" from-port="0" to-layer="80" to-port="2"/>
		<edge from-layer="80" from-port="3" to-layer="82" to-port="0"/>
		<edge from-layer="81" from-port="0" to-layer="82" to-port="1"/>
		<edge from-layer="82" from-port="2" to-layer="83" to-port="1"/>
		<edge from-layer="83" from-port="2" to-layer="85" to-port="0"/>
		<edge from-layer="84" from-port="0" to-layer="85" to-port="1"/>
		<edge from-layer="85" from-port="2" to-layer="97" to-port="0"/>
		<edge from-layer="86" from-port="0" to-layer="88" to-port="1"/>
		<edge from-layer="87" from-port="0" to-layer="88" to-port="2"/>
		<edge from-layer="88" from-port="3" to-layer="94" to-port="0"/>
		<edge from-layer="89" from-port="0" to-layer="91" to-port="1"/>
		<edge from-layer="90" from-port="0" to-layer="91" to-port="2"/>
		<edge from-layer="91" from-port="3" to-layer="93" to-port="0"/>
		<edge from-layer="92" from-port="0" to-layer="93" to-port="1"/>
		<edge from-layer="93" from-port="2" to-layer="94" to-port="1"/>
		<edge from-layer="94" from-port="2" to-layer="96" to-port="0"/>
		<edge from-layer="95" from-port="0" to-layer="96" to-port="1"/>
		<edge from-layer="96" from-port="2" to-layer="97" to-port="1"/>
		<edge from-layer="97" from-port="2" to-layer="122" to-port="0"/>
		<edge from-layer="98" from-port="0" to-layer="120" to-port="0"/>
		<edge from-layer="99" from-port="0" to-layer="105" to-port="0"/>
		<edge from-layer="100" from-port="1" to-layer="103" to-port="0"/>
		<edge from-layer="101" from-port="0" to-layer="103" to-port="1"/>
		<edge from-layer="102" from-port="0" to-layer="103" to-port="2"/>
		<edge from-layer="103" from-port="3" to-layer="105" to-port="1"/>
		<edge from-layer="103" from-port="3" to-layer="110" to-port="1"/>
		<edge from-layer="104" from-port="0" to-layer="105" to-port="2"/>
		<edge from-layer="105" from-port="3" to-layer="107" to-port="0"/>
		<edge from-layer="106" from-port="0" to-layer="107" to-port="1"/>
		<edge from-layer="107" from-port="2" to-layer="113" to-port="0"/>
		<edge from-layer="108" from-port="0" to-layer="110" to-port="0"/>
		<edge from-layer="109" from-port="0" to-layer="110" to-port="2"/>
		<edge from-layer="110" from-port="3" to-layer="112" to-port="0"/>
		<edge from-layer="111" from-port="0" to-layer="112" to-port="1"/>
		<edge from-layer="112" from-port="2" to-layer="113" to-port="1"/>
		<edge from-layer="113" from-port="2" to-layer="115" to-port="0"/>
		<edge from-layer="114" from-port="0" to-layer="115" to-port="1"/>
		<edge from-layer="115" from-port="2" to-layer="117" to-port="0"/>
		<edge from-layer="116" from-port="0" to-layer="117" to-port="1"/>
		<edge from-layer="117" from-port="2" to-layer="118" to-port="0"/>
		<edge from-layer="118" from-port="1" to-layer="120" to-port="1"/>
		<edge from-layer="119" from-port="0" to-layer="120" to-port="2"/>
		<edge from-layer="120" from-port="3" to-layer="121" to-port="1"/>
		<edge from-layer="121" from-port="2" to-layer="122" to-port="1"/>
		<edge from-layer="122" from-port="2" to-layer="124" to-port="0"/>
		<edge from-layer="123" from-port="0" to-layer="124" to-port="1"/>
		<edge from-layer="124" from-port="2" to-layer="134" to-port="0"/>
		<edge from-layer="125" from-port="0" to-layer="126" to-port="1"/>
		<edge from-layer="126" from-port="2" to-layer="128" to-port="0"/>
		<edge from-layer="127" from-port="0" to-layer="128" to-port="1"/>
		<edge from-layer="128" from-port="2" to-layer="129" to-port="0"/>
		<edge from-layer="129" from-port="1" to-layer="131" to-port="0"/>
		<edge from-layer="130" from-port="0" to-layer="131" to-port="1"/>
		<edge from-layer="131" from-port="2" to-layer="133" to-port="0"/>
		<edge from-layer="132" from-port="0" to-layer="133" to-port="1"/>
		<edge from-layer="133" from-port="2" to-layer="134" to-port="1"/>
		<edge from-layer="133" from-port="2" to-layer="308" to-port="1"/>
		<edge from-layer="134" from-port="2" to-layer="135" to-port="0"/>
		<edge from-layer="134" from-port="2" to-layer="145" to-port="0"/>
		<edge from-layer="134" from-port="2" to-layer="143" to-port="0"/>
		<edge from-layer="135" from-port="1" to-layer="138" to-port="0"/>
		<edge from-layer="136" from-port="0" to-layer="138" to-port="1"/>
		<edge from-layer="137" from-port="0" to-layer="138" to-port="2"/>
		<edge from-layer="138" from-port="3" to-layer="140" to-port="0"/>
		<edge from-layer="139" from-port="0" to-layer="140" to-port="1"/>
		<edge from-layer="140" from-port="2" to-layer="142" to-port="0"/>
		<edge from-layer="141" from-port="0" to-layer="142" to-port="1"/>
		<edge from-layer="142" from-port="2" to-layer="143" to-port="1"/>
		<edge from-layer="143" from-port="2" to-layer="144" to-port="0"/>
		<edge from-layer="144" from-port="1" to-layer="146" to-port="0"/>
		<edge from-layer="145" from-port="1" to-layer="146" to-port="1"/>
		<edge from-layer="146" from-port="2" to-layer="169" to-port="0"/>
		<edge from-layer="147" from-port="0" to-layer="148" to-port="1"/>
		<edge from-layer="148" from-port="2" to-layer="150" to-port="0"/>
		<edge from-layer="149" from-port="0" to-layer="150" to-port="1"/>
		<edge from-layer="150" from-port="2" to-layer="166" to-port="0"/>
		<edge from-layer="150" from-port="2" to-layer="151" to-port="0"/>
		<edge from-layer="150" from-port="2" to-layer="157" to-port="0"/>
		<edge from-layer="151" from-port="1" to-layer="154" to-port="0"/>
		<edge from-layer="152" from-port="0" to-layer="154" to-port="1"/>
		<edge from-layer="153" from-port="0" to-layer="154" to-port="2"/>
		<edge from-layer="154" from-port="3" to-layer="156" to-port="0"/>
		<edge from-layer="155" from-port="0" to-layer="156" to-port="1"/>
		<edge from-layer="156" from-port="2" to-layer="165" to-port="0"/>
		<edge from-layer="157" from-port="1" to-layer="160" to-port="0"/>
		<edge from-layer="158" from-port="0" to-layer="160" to-port="1"/>
		<edge from-layer="159" from-port="0" to-layer="160" to-port="2"/>
		<edge from-layer="160" from-port="3" to-layer="162" to-port="0"/>
		<edge from-layer="161" from-port="0" to-layer="162" to-port="1"/>
		<edge from-layer="162" from-port="2" to-layer="165" to-port="1"/>
		<edge from-layer="163" from-port="0" to-layer="165" to-port="2"/>
		<edge from-layer="164" from-port="0" to-layer="165" to-port="3"/>
		<edge from-layer="165" from-port="4" to-layer="166" to-port="1"/>
		<edge from-layer="166" from-port="2" to-layer="168" to-port="0"/>
		<edge from-layer="167" from-port="0" to-layer="168" to-port="1"/>
		<edge from-layer="168" from-port="2" to-layer="169" to-port="1"/>
		<edge from-layer="169" from-port="2" to-layer="171" to-port="0"/>
		<edge from-layer="170" from-port="0" to-layer="171" to-port="1"/>
		<edge from-layer="171" from-port="2" to-layer="172" to-port="0"/>
		<edge from-layer="171" from-port="2" to-layer="178" to-port="0"/>
		<edge from-layer="171" from-port="2" to-layer="186" to-port="0"/>
		<edge from-layer="172" from-port="1" to-layer="175" to-port="0"/>
		<edge from-layer="173" from-port="0" to-layer="175" to-port="1"/>
		<edge from-layer="174" from-port="0" to-layer="175" to-port="2"/>
		<edge from-layer="175" from-port="3" to-layer="177" to-port="0"/>
		<edge from-layer="176" from-port="0" to-layer="177" to-port="1"/>
		<edge from-layer="177" from-port="2" to-layer="185" to-port="0"/>
		<edge from-layer="178" from-port="1" to-layer="181" to-port="0"/>
		<edge from-layer="179" from-port="0" to-layer="181" to-port="1"/>
		<edge from-layer="180" from-port="0" to-layer="181" to-port="2"/>
		<edge from-layer="181" from-port="3" to-layer="183" to-port="0"/>
		<edge from-layer="182" from-port="0" to-layer="183" to-port="1"/>
		<edge from-layer="183" from-port="2" to-layer="185" to-port="1"/>
		<edge from-layer="184" from-port="0" to-layer="185" to-port="2"/>
		<edge from-layer="185" from-port="3" to-layer="186" to-port="1"/>
		<edge from-layer="186" from-port="2" to-layer="188" to-port="0"/>
		<edge from-layer="187" from-port="0" to-layer="188" to-port="1"/>
		<edge from-layer="188" from-port="2" to-layer="190" to-port="0"/>
		<edge from-layer="189" from-port="0" to-layer="190" to-port="1"/>
		<edge from-layer="190" from-port="2" to-layer="191" to-port="0"/>
		<edge from-layer="191" from-port="2" to-layer="193" to-port="0"/>
		<edge from-layer="192" from-port="0" to-layer="193" to-port="1"/>
		<edge from-layer="193" from-port="2" to-layer="195" to-port="0"/>
		<edge from-layer="194" from-port="0" to-layer="195" to-port="1"/>
		<edge from-layer="195" from-port="2" to-layer="197" to-port="0"/>
		<edge from-layer="196" from-port="0" to-layer="197" to-port="1"/>
		<edge from-layer="197" from-port="2" to-layer="199" to-port="0"/>
		<edge from-layer="197" from-port="2" to-layer="207" to-port="1"/>
		<edge from-layer="198" from-port="0" to-layer="199" to-port="1"/>
		<edge from-layer="199" from-port="2" to-layer="201" to-port="0"/>
		<edge from-layer="200" from-port="0" to-layer="201" to-port="1"/>
		<edge from-layer="201" from-port="2" to-layer="202" to-port="0"/>
		<edge from-layer="202" from-port="1" to-layer="204" to-port="0"/>
		<edge from-layer="203" from-port="0" to-layer="204" to-port="1"/>
		<edge from-layer="204" from-port="2" to-layer="206" to-port="0"/>
		<edge from-layer="205" from-port="0" to-layer="206" to-port="1"/>
		<edge from-layer="206" from-port="2" to-layer="207" to-port="0"/>
		<edge from-layer="207" from-port="2" to-layer="209" to-port="0"/>
		<edge from-layer="208" from-port="0" to-layer="209" to-port="1"/>
		<edge from-layer="209" from-port="2" to-layer="211" to-port="0"/>
		<edge from-layer="210" from-port="0" to-layer="211" to-port="1"/>
		<edge from-layer="211" from-port="2" to-layer="213" to-port="0"/>
		<edge from-layer="212" from-port="0" to-layer="213" to-port="1"/>
		<edge from-layer="213" from-port="2" to-layer="215" to-port="0"/>
		<edge from-layer="213" from-port="2" to-layer="365" to-port="1"/>
		<edge from-layer="213" from-port="2" to-layer="322" to-port="0"/>
		<edge from-layer="213" from-port="2" to-layer="240" to-port="0"/>
		<edge from-layer="213" from-port="2" to-layer="283" to-port="0"/>
		<edge from-layer="214" from-port="0" to-layer="215" to-port="1"/>
		<edge from-layer="215" from-port="2" to-layer="217" to-port="0"/>
		<edge from-layer="216" from-port="0" to-layer="217" to-port="1"/>
		<edge from-layer="217" from-port="2" to-layer="224" to-port="0"/>
		<edge from-layer="217" from-port="2" to-layer="233" to-port="0"/>
		<edge from-layer="217" from-port="2" to-layer="218" to-port="0"/>
		<edge from-layer="218" from-port="1" to-layer="221" to-port="0"/>
		<edge from-layer="219" from-port="0" to-layer="221" to-port="1"/>
		<edge from-layer="220" from-port="0" to-layer="221" to-port="2"/>
		<edge from-layer="221" from-port="3" to-layer="223" to-port="0"/>
		<edge from-layer="222" from-port="0" to-layer="223" to-port="1"/>
		<edge from-layer="223" from-port="2" to-layer="232" to-port="0"/>
		<edge from-layer="224" from-port="1" to-layer="227" to-port="0"/>
		<edge from-layer="225" from-port="0" to-layer="227" to-port="1"/>
		<edge from-layer="226" from-port="0" to-layer="227" to-port="2"/>
		<edge from-layer="227" from-port="3" to-layer="229" to-port="0"/>
		<edge from-layer="228" from-port="0" to-layer="229" to-port="1"/>
		<edge from-layer="229" from-port="2" to-layer="232" to-port="1"/>
		<edge from-layer="230" from-port="0" to-layer="232" to-port="2"/>
		<edge from-layer="231" from-port="0" to-layer="232" to-port="3"/>
		<edge from-layer="232" from-port="4" to-layer="233" to-port="1"/>
		<edge from-layer="233" from-port="2" to-layer="235" to-port="0"/>
		<edge from-layer="234" from-port="0" to-layer="235" to-port="1"/>
		<edge from-layer="235" from-port="2" to-layer="304" to-port="0"/>
		<edge from-layer="235" from-port="2" to-layer="271" to-port="0"/>
		<edge from-layer="235" from-port="2" to-layer="238" to-port="0"/>
		<edge from-layer="236" from-port="0" to-layer="238" to-port="1"/>
		<edge from-layer="237" from-port="0" to-layer="238" to-port="2"/>
		<edge from-layer="238" from-port="3" to-layer="266" to-port="0"/>
		<edge from-layer="239" from-port="0" to-layer="240" to-port="1"/>
		<edge from-layer="240" from-port="2" to-layer="242" to-port="0"/>
		<edge from-layer="241" from-port="0" to-layer="242" to-port="1"/>
		<edge from-layer="242" from-port="2" to-layer="243" to-port="0"/>
		<edge from-layer="242" from-port="2" to-layer="249" to-port="0"/>
		<edge from-layer="242" from-port="2" to-layer="258" to-port="0"/>
		<edge from-layer="243" from-port="1" to-layer="246" to-port="0"/>
		<edge from-layer="244" from-port="0" to-layer="246" to-port="1"/>
		<edge from-layer="245" from-port="0" to-layer="246" to-port="2"/>
		<edge from-layer="246" from-port="3" to-layer="248" to-port="0"/>
		<edge from-layer="247" from-port="0" to-layer="248" to-port="1"/>
		<edge from-layer="248" from-port="2" to-layer="257" to-port="0"/>
		<edge from-layer="249" from-port="1" to-layer="252" to-port="0"/>
		<edge from-layer="250" from-port="0" to-layer="252" to-port="1"/>
		<edge from-layer="251" from-port="0" to-layer="252" to-port="2"/>
		<edge from-layer="252" from-port="3" to-layer="254" to-port="0"/>
		<edge from-layer="253" from-port="0" to-layer="254" to-port="1"/>
		<edge from-layer="254" from-port="2" to-layer="257" to-port="1"/>
		<edge from-layer="255" from-port="0" to-layer="257" to-port="2"/>
		<edge from-layer="256" from-port="0" to-layer="257" to-port="3"/>
		<edge from-layer="257" from-port="4" to-layer="258" to-port="1"/>
		<edge from-layer="258" from-port="2" to-layer="260" to-port="0"/>
		<edge from-layer="259" from-port="0" to-layer="260" to-port="1"/>
		<edge from-layer="260" from-port="2" to-layer="274" to-port="0"/>
		<edge from-layer="260" from-port="2" to-layer="263" to-port="0"/>
		<edge from-layer="261" from-port="0" to-layer="263" to-port="1"/>
		<edge from-layer="262" from-port="0" to-layer="263" to-port="2"/>
		<edge from-layer="263" from-port="3" to-layer="265" to-port="0"/>
		<edge from-layer="264" from-port="0" to-layer="265" to-port="1"/>
		<edge from-layer="265" from-port="2" to-layer="266" to-port="1"/>
		<edge from-layer="266" from-port="2" to-layer="268" to-port="0"/>
		<edge from-layer="267" from-port="0" to-layer="268" to-port="1"/>
		<edge from-layer="268" from-port="2" to-layer="280" to-port="0"/>
		<edge from-layer="269" from-port="0" to-layer="271" to-port="1"/>
		<edge from-layer="270" from-port="0" to-layer="271" to-port="2"/>
		<edge from-layer="271" from-port="3" to-layer="277" to-port="0"/>
		<edge from-layer="272" from-port="0" to-layer="274" to-port="1"/>
		<edge from-layer="273" from-port="0" to-layer="274" to-port="2"/>
		<edge from-layer="274" from-port="3" to-layer="276" to-port="0"/>
		<edge from-layer="275" from-port="0" to-layer="276" to-port="1"/>
		<edge from-layer="276" from-port="2" to-layer="277" to-port="1"/>
		<edge from-layer="277" from-port="2" to-layer="279" to-port="0"/>
		<edge from-layer="278" from-port="0" to-layer="279" to-port="1"/>
		<edge from-layer="279" from-port="2" to-layer="280" to-port="1"/>
		<edge from-layer="280" from-port="2" to-layer="305" to-port="0"/>
		<edge from-layer="281" from-port="0" to-layer="303" to-port="0"/>
		<edge from-layer="282" from-port="0" to-layer="288" to-port="0"/>
		<edge from-layer="283" from-port="1" to-layer="286" to-port="0"/>
		<edge from-layer="284" from-port="0" to-layer="286" to-port="1"/>
		<edge from-layer="285" from-port="0" to-layer="286" to-port="2"/>
		<edge from-layer="286" from-port="3" to-layer="288" to-port="1"/>
		<edge from-layer="286" from-port="3" to-layer="293" to-port="1"/>
		<edge from-layer="287" from-port="0" to-layer="288" to-port="2"/>
		<edge from-layer="288" from-port="3" to-layer="290" to-port="0"/>
		<edge from-layer="289" from-port="0" to-layer="290" to-port="1"/>
		<edge from-layer="290" from-port="2" to-layer="296" to-port="0"/>
		<edge from-layer="291" from-port="0" to-layer="293" to-port="0"/>
		<edge from-layer="292" from-port="0" to-layer="293" to-port="2"/>
		<edge from-layer="293" from-port="3" to-layer="295" to-port="0"/>
		<edge from-layer="294" from-port="0" to-layer="295" to-port="1"/>
		<edge from-layer="295" from-port="2" to-layer="296" to-port="1"/>
		<edge from-layer="296" from-port="2" to-layer="298" to-port="0"/>
		<edge from-layer="297" from-port="0" to-layer="298" to-port="1"/>
		<edge from-layer="298" from-port="2" to-layer="300" to-port="0"/>
		<edge from-layer="299" from-port="0" to-layer="300" to-port="1"/>
		<edge from-layer="300" from-port="2" to-layer="301" to-port="0"/>
		<edge from-layer="301" from-port="1" to-layer="303" to-port="1"/>
		<edge from-layer="302" from-port="0" to-layer="303" to-port="2"/>
		<edge from-layer="303" from-port="3" to-layer="304" to-port="1"/>
		<edge from-layer="304" from-port="2" to-layer="305" to-port="1"/>
		<edge from-layer="305" from-port="2" to-layer="307" to-port="0"/>
		<edge from-layer="306" from-port="0" to-layer="307" to-port="1"/>
		<edge from-layer="307" from-port="2" to-layer="308" to-port="0"/>
		<edge from-layer="308" from-port="2" to-layer="309" to-port="0"/>
		<edge from-layer="308" from-port="2" to-layer="319" to-port="0"/>
		<edge from-layer="308" from-port="2" to-layer="317" to-port="0"/>
		<edge from-layer="309" from-port="1" to-layer="312" to-port="0"/>
		<edge from-layer="310" from-port="0" to-layer="312" to-port="1"/>
		<edge from-layer="311" from-port="0" to-layer="312" to-port="2"/>
		<edge from-layer="312" from-port="3" to-layer="314" to-port="0"/>
		<edge from-layer="313" from-port="0" to-layer="314" to-port="1"/>
		<edge from-layer="314" from-port="2" to-layer="316" to-port="0"/>
		<edge from-layer="315" from-port="0" to-layer="316" to-port="1"/>
		<edge from-layer="316" from-port="2" to-layer="317" to-port="1"/>
		<edge from-layer="317" from-port="2" to-layer="318" to-port="0"/>
		<edge from-layer="318" from-port="1" to-layer="320" to-port="0"/>
		<edge from-layer="319" from-port="1" to-layer="320" to-port="1"/>
		<edge from-layer="320" from-port="2" to-layer="343" to-port="0"/>
		<edge from-layer="321" from-port="0" to-layer="322" to-port="1"/>
		<edge from-layer="322" from-port="2" to-layer="324" to-port="0"/>
		<edge from-layer="323" from-port="0" to-layer="324" to-port="1"/>
		<edge from-layer="324" from-port="2" to-layer="325" to-port="0"/>
		<edge from-layer="324" from-port="2" to-layer="340" to-port="0"/>
		<edge from-layer="324" from-port="2" to-layer="331" to-port="0"/>
		<edge from-layer="325" from-port="1" to-layer="328" to-port="0"/>
		<edge from-layer="326" from-port="0" to-layer="328" to-port="1"/>
		<edge from-layer="327" from-port="0" to-layer="328" to-port="2"/>
		<edge from-layer="328" from-port="3" to-layer="330" to-port="0"/>
		<edge from-layer="329" from-port="0" to-layer="330" to-port="1"/>
		<edge from-layer="330" from-port="2" to-layer="339" to-port="0"/>
		<edge from-layer="331" from-port="1" to-layer="334" to-port="0"/>
		<edge from-layer="332" from-port="0" to-layer="334" to-port="1"/>
		<edge from-layer="333" from-port="0" to-layer="334" to-port="2"/>
		<edge from-layer="334" from-port="3" to-layer="336" to-port="0"/>
		<edge from-layer="335" from-port="0" to-layer="336" to-port="1"/>
		<edge from-layer="336" from-port="2" to-layer="339" to-port="1"/>
		<edge from-layer="337" from-port="0" to-layer="339" to-port="2"/>
		<edge from-layer="338" from-port="0" to-layer="339" to-port="3"/>
		<edge from-layer="339" from-port="4" to-layer="340" to-port="1"/>
		<edge from-layer="340" from-port="2" to-layer="342" to-port="0"/>
		<edge from-layer="341" from-port="0" to-layer="342" to-port="1"/>
		<edge from-layer="342" from-port="2" to-layer="343" to-port="1"/>
		<edge from-layer="343" from-port="2" to-layer="345" to-port="0"/>
		<edge from-layer="344" from-port="0" to-layer="345" to-port="1"/>
		<edge from-layer="345" from-port="2" to-layer="346" to-port="0"/>
		<edge from-layer="345" from-port="2" to-layer="352" to-port="0"/>
		<edge from-layer="345" from-port="2" to-layer="360" to-port="0"/>
		<edge from-layer="346" from-port="1" to-layer="349" to-port="0"/>
		<edge from-layer="347" from-port="0" to-layer="349" to-port="1"/>
		<edge from-layer="348" from-port="0" to-layer="349" to-port="2"/>
		<edge from-layer="349" from-port="3" to-layer="351" to-port="0"/>
		<edge from-layer="350" from-port="0" to-layer="351" to-port="1"/>
		<edge from-layer="351" from-port="2" to-layer="359" to-port="0"/>
		<edge from-layer="352" from-port="1" to-layer="355" to-port="0"/>
		<edge from-layer="353" from-port="0" to-layer="355" to-port="1"/>
		<edge from-layer="354" from-port="0" to-layer="355" to-port="2"/>
		<edge from-layer="355" from-port="3" to-layer="357" to-port="0"/>
		<edge from-layer="356" from-port="0" to-layer="357" to-port="1"/>
		<edge from-layer="357" from-port="2" to-layer="359" to-port="1"/>
		<edge from-layer="358" from-port="0" to-layer="359" to-port="2"/>
		<edge from-layer="359" from-port="3" to-layer="360" to-port="1"/>
		<edge from-layer="360" from-port="2" to-layer="362" to-port="0"/>
		<edge from-layer="361" from-port="0" to-layer="362" to-port="1"/>
		<edge from-layer="362" from-port="2" to-layer="364" to-port="0"/>
		<edge from-layer="363" from-port="0" to-layer="364" to-port="1"/>
		<edge from-layer="364" from-port="2" to-layer="365" to-port="0"/>
		<edge from-layer="365" from-port="2" to-layer="367" to-port="0"/>
		<edge from-layer="366" from-port="0" to-layer="367" to-port="1"/>
		<edge from-layer="367" from-port="2" to-layer="369" to-port="0"/>
		<edge from-layer="368" from-port="0" to-layer="369" to-port="1"/>
		<edge from-layer="369" from-port="2" to-layer="371" to-port="0"/>
		<edge from-layer="370" from-port="0" to-layer="371" to-port="1"/>
		<edge from-layer="371" from-port="2" to-layer="381" to-port="1"/>
		<edge from-layer="371" from-port="2" to-layer="373" to-port="0"/>
		<edge from-layer="372" from-port="0" to-layer="373" to-port="1"/>
		<edge from-layer="373" from-port="2" to-layer="375" to-port="0"/>
		<edge from-layer="374" from-port="0" to-layer="375" to-port="1"/>
		<edge from-layer="375" from-port="2" to-layer="376" to-port="0"/>
		<edge from-layer="376" from-port="1" to-layer="378" to-port="0"/>
		<edge from-layer="377" from-port="0" to-layer="378" to-port="1"/>
		<edge from-layer="378" from-port="2" to-layer="380" to-port="0"/>
		<edge from-layer="379" from-port="0" to-layer="380" to-port="1"/>
		<edge from-layer="380" from-port="2" to-layer="381" to-port="0"/>
		<edge from-layer="381" from-port="2" to-layer="383" to-port="0"/>
		<edge from-layer="382" from-port="0" to-layer="383" to-port="1"/>
		<edge from-layer="383" from-port="2" to-layer="385" to-port="0"/>
		<edge from-layer="384" from-port="0" to-layer="385" to-port="1"/>
		<edge from-layer="385" from-port="2" to-layer="387" to-port="0"/>
		<edge from-layer="386" from-port="0" to-layer="387" to-port="1"/>
		<edge from-layer="387" from-port="2" to-layer="390" to-port="0"/>
		<edge from-layer="388" from-port="0" to-layer="390" to-port="1"/>
		<edge from-layer="389" from-port="0" to-layer="390" to-port="2"/>
		<edge from-layer="390" from-port="3" to-layer="392" to-port="0"/>
		<edge from-layer="391" from-port="0" to-layer="392" to-port="1"/>
		<edge from-layer="392" from-port="2" to-layer="394" to-port="0"/>
		<edge from-layer="393" from-port="0" to-layer="394" to-port="1"/>
		<edge from-layer="394" from-port="2" to-layer="395" to-port="0"/>
		<edge from-layer="395" from-port="1" to-layer="397" to-port="0"/>
		<edge from-layer="396" from-port="0" to-layer="397" to-port="1"/>
		<edge from-layer="397" from-port="2" to-layer="399" to-port="0"/>
		<edge from-layer="398" from-port="0" to-layer="399" to-port="1"/>
		<edge from-layer="399" from-port="2" to-layer="400" to-port="0"/>
	</edges>
	<meta_data>
		<MO_version value="2021.4.2-3976-0943ed67223-refs/pull/539/head"/>
		<cli_parameters>
			<caffe_parser_path value="DIR"/>
			<data_type value="FP16"/>
			<disable_nhwc_to_nchw value="False"/>
			<disable_omitting_optional value="False"/>
			<disable_resnet_optimization value="False"/>
			<disable_weights_compression value="False"/>
			<enable_concat_optimization value="False"/>
			<enable_flattening_nested_params value="False"/>
			<enable_ssd_gluoncv value="False"/>
			<extensions value="DIR"/>
			<framework value="onnx"/>
			<freeze_placeholder_with_value value="{}"/>
			<generate_deprecated_IR_V7 value="False"/>
			<input value="input_ids,attention_mask"/>
			<input_model value="DIR/model.onnx"/>
			<input_model_is_text value="False"/>
			<k value="DIR/CustomLayersMapping.xml"/>
			<keep_shape_ops value="True"/>
			<legacy_ir_generation value="False"/>
			<legacy_mxnet_model value="False"/>
			<log_level value="ERROR"/>
			<mean_scale_values value="{}"/>
			<mean_values value="()"/>
			<model_name value="model"/>
			<output_dir value="DIR"/>
			<placeholder_data_types value="{}"/>
			<placeholder_shapes value="{'input_ids': array([  1, 128]), 'attention_mask': array([  1, 128])}"/>
			<progress value="False"/>
			<remove_memory value="False"/>
			<remove_output_softmax value="False"/>
			<reverse_input_channels value="False"/>
			<save_params_from_nd value="False"/>
			<scale_values value="()"/>
			<silent value="False"/>
			<static_shape value="False"/>
			<stream_output value="False"/>
			<transform value=""/>
			<unset unset_cli_parameters="batch, counts, disable_fusing, disable_gfusing, finegrain_fusing, input_checkpoint, input_meta_graph, input_proto, input_shape, input_symbol, mean_file, mean_file_offsets, move_to_preprocess, nd_prefix_name, output, pretrained_model_name, saved_model_dir, saved_model_tags, scale, tensorboard_logdir, tensorflow_custom_layer_libraries, tensorflow_custom_operations_config_update, tensorflow_object_detection_api_pipeline_config, tensorflow_use_custom_operations_config, transformations_config"/>
		</cli_parameters>
	</meta_data>
</net>
